…
701   Q, K, and V . In attention, WQ , WK , and WV are all composed of matrices [C, C]. So the parameter
      count of attention is 3C 2 .


                                                      13
      Under review as a conference paper at ICLR 2025


702                                                             Spatial Attention        Temporal Attention
703                 Settings                  Model                                                             Total time
                                                                shape       Time (s)      shape      Time (s)
704                                       Image Diffusion   [1, 16384, 4]     6.453         -            -       6.453
            Base (F = 16, Res = 256)
                                          Video Diffusion   [16, 1024, 4]     2.166    [1024, 16, 4]  0.947      3.113
705                                       Image Diffusion   [1, 32768, 4]    24.710         -            -       24.71
706    Long Video (F = 32, Res = 256)
                                          Video Diffusion   [32, 1024, 4]     4.209    [1024, 32, 4]  0.941      5.150
707                                       Image Diffusion   [1, 32768, 4]    24.710         -            -       24.71
        High Res (F = 16, Res = 512)
                                          Video Diffusion   [16, 2048, 4]     9.196    [2048, 16, 4]  0.971      10.167
708                                       Image Diffusion   [1, 65536, 4]    99.212         -            -       99.212
709    High Quality (F = 32, Res = 512)
                                          Video Diffusion   [32, 2048, 4]    18.252    [2048, 32, 4]  1.571      19.823
710
711   Table 3: Comparison of 1,000 times Inference in four Different Settings: Image Diffusion vs. Video
712   Diffusion.
713
714
715
      For calculation, the steps can be described as follows:
716   a) Q, K, and V calculation: Each of those three matrices calculation, input and output shape is
717   [B, L, C] × [C, C] → [B, L, C]. So the calculation amount of this step is 3 × 2BLC 2 = 6BLC 2 .
…
