…
                              H̃t = tanh(Wxh ∗G Xt + Whh ∗G (Rt ⊙ Ht−1 ) + bh )                              (38)
2162
2163
       In our experiments, GConvLSTM and GConvGRU were implemented using the library Pytorch
2164   (version 1.12.1), using the architectures shown in Tables 30 and 31, respectively.
2165
2166                           Table 30: GConvLSTM architecture and parameters.
2167
2168    Layer                       Input Shape                      Output Shape                           #Param
2169    GConvLSTM                   [2871, 36], [2, 4158], [4158]    [2871, 12], [2871, 128], [2871, 128]    87,436
2170    (recurrent) GConvLSTM       [2871, 36], [2, 4158], [4158]    [2871, 128], [2871, 128]                85,888
2171      (convxi ) CHEBConv        [2871, 36], [2, 4158], [4158]    [2871, 128]                              4,736
          (convhi ) CHEBConv        [2871, 128], [2, 4158], [4158]   [2871, 128]                             16,512
2172
          (convxf ) CHEBConv        [2871, 36], [2, 4158], [4158]    [2871, 128]                              4,736
2173      (convhf ) CHEBConv        [2871, 128], [2, 4158], [4158]   [2871, 128]                             16,512
2174      (convxc ) CHEBConv        [2871, 36], [2, 4158], [4158]    [2871, 128]                              4,736
2175      (convhc ) CHEBConv        [2871, 128], [2, 4158], [4158]   [2871, 128]                             16,512
2176      (convxo ) CHEBConv        [2871, 36], [2, 4158], [4158]    [2871, 128]                              4,736
2177      (convho ) CHEBConv        [2871, 128], [2, 4158], [4158]   [2871, 128]                             16,512
        (linear)Linear              [2871, 128]                      [2871, 12]                               1,548
2178
2179
2180                            Table 31: GConvGRU architecture and parameters.
2181
2182             Layer                      Input Shape                      Output Shape      #Param
2183             GConvGRU                   [2871, 36], [2, 4158], [4158]    [2871, 12]         65,292
2184             (recurrent) CHEBConv       [2871, 36], [2, 4158], [4158]    [2871, 128]        63,744
2185                (convxz ) CHEBConv      [2871, 36], [2, 4158], [4158]    [2871, 128]         4,736
2186                (convhz ) CHEBConv      [2871, 128], [2, 4158], [4158]   [2871, 128]        16,512
                    (convxr ) CHEBConv      [2871, 36], [2, 4158], [4158]    [2871, 128]         4,736
2187
                    (convhr ) CHEBConv      [2871, 128], [2, 4158], [4158]   [2871, 128]        16,512
2188                (convxh ) CHEBConv      [2871, 36], [2, 4158], [4158]    [2871, 128]         4,736
2189                (convhh ) CHEBConv      [2871, 128], [2, 4158], [4158]   [2871, 128]        16,512
2190             (linear)Linear             [2871, 128]                      [2871, 12]          1,548
2191
2192
2193   C.4.2    T EMPORAL G RAPH C ONVOLUTIONAL N ETWORK (TGCN)
2194
       TGCN [Zhao et al., 2019] is a neural network-based traffic forecasting method that combines the
2195
       Graph Convolutional Network (GCN) and the Gated Recurrent Unit (GRU). The GCN is used to
2196   capture the topological structure of the urban road network for obtaining the spatial dependence, and
2197   the GRU is used to capture the dynamic variation of traffic information on the roads for obtaining the
…
2218                              H̃t = tanh(Wh ∗ [f (A, Xt ) , (Rt ⊙ Ht−1 )] + bh                           (42)
2219
2220
       Therefore, the TGCN model can deal with complex spatial dependence and temporal dynamics.
       In our experiments, TGCN was implemented using the library Pytorch (version 1.12.1), using the
2221
       architecture shown in Table 32.
2222
2223                          Table 32: Model architecture and parameters for TGCN.
2224
2225            Layer                  Input Shape                     Output Shape                #Param
2226            TGCN                   [2871, 36], [2, 4158], [4158]   [2871, 12], [2871, 128]     114,444
2227
                (recurrent) TGCN       [2871, 36], [2, 4158], [4158]   [2871, 128]                 112,896
                  (convz ) GCNConv     [2871, 36], [2, 4158], [4158]   [2871, 128]                   4,736
2228
                  (linearz ) Linear    [2871, 256]                     [2871, 128]                  32,896
2229              (convr ) GCNConv     [2871, 36], [2, 4158], [4158]   [2871, 128]                   4,736
2230              (linearr ) Linear    [2871, 256]                     [2871, 128]                  32,896
2231              (convh ) GCNConv     [2871, 36], [2, 4158], [4158]   [2871, 128]                   4,736
2232              (linearh ) Linear    [2871, 256]                     [2871, 128]                  32,896
2233            (linear) Linear        [2871, 128]                     [2871, 12]                    1,548
2234
2235
       C.4.3    ATTENTION T EMPORAL G RAPH C ONVOLUTIONAL N ETWORK (A3TGCN)
2236
2237   A3TGCN [Bai et al., 2021] is an improvement of TGCN, in which the attention mechanism was
2238   introduced to re-weight the influence of historical traffic states and thus to capture the global variation
2239   trends of the traffic state.
2240   Considering the previous formulation of TGCN, the hidden states were fed into the attention model to
…
2283   feeding the model with either the ground truth observation with probability ϵi or the prediction by the
2284   model with probability 1-ϵi at the ith iteration. During the training process, ϵi gradually decreases to
2285   0 to allow the model to learn the testing distribution. In our experiments, DCRNN was implemented
2286   using the library Pytorch (version 1.12.1), using the architecture shown in Table 34.
2287
2288                        Table 34: Model architecture and parameters for DCRNN
2289
             Layer                        Input Shape                        Output Shape      #Param
2290
2291
             DCRNN                        [2871, 36], [2, 4158], [4158]      [2871, 12]        127,884
             (recurrent) DCRNN            [2871, 36], [2, 4158], [4158]      [2871, 128]       126,336
2292
               (convxz ) DCRNNConv        [2871, 164], [2, 4158], [4158]     [2871, 128]        42,112
2293
               (convxr ) DCRNNConv        [2871, 164], [2, 4158], [4158]     [2871, 128]        42,112
2294
               (convxh ) DCRNNConv        [2871, 164], [2, 4158], [4158]     [2871, 128]        42,112
2295
             (linear) Linear              [2871, 128]                        [2871, 12]          1,548
2296
2297
2298
       D     E VALUATION P ROCESS
2299
2300
       This section summarizes the evaluation process designed to train and assess the performance of the
2301   learning models. After exploring classification and regression tasks, specific metrics were considered
2302   to analyze the obtained results, as discussed in the following sections.
2303
2304   D.1    C LASSIFICATION TASKS
2305
…
