…
1031   PPO, with 64 x 64 input images. The overall parameter count is 2,450,640, with a total of 262.33M multi-adds.
1032
        Layer (type:depth-idx)       Input             Output           Param #     Kernel    Param %   Multi-Adds
1033
        ImpalaPPOActorCritic         [3, 64, 64]       [15]             –           –         –         –
1034      Sequential: 1-1            [3, 64, 64]       [256]            –           –         –         –
            ConvSequence: 2-1        [3, 64, 64]       [48, 32, 32]     –           –         –         –
1035           Conv2d: 3-1           [3, 64, 64]       [48, 64, 64]     1,344       [3, 3]    0.05%     5,505,024
               ResidualBlock: 3-2    [48, 32, 32]      [48, 32, 32]     –           –         –         –
1036              Conv2d: 4-1        [48, 32, 32]      [48, 32, 32]     20,784      [3, 3]    0.85%     21,282,816
1037              Conv2d: 4-2        [48, 32, 32]      [48, 32, 32]     20,784      [3, 3]    0.85%     21,282,816
               ResidualBlock: 3-3    [48, 32, 32]      [48, 32, 32]     –           –         –         –
1038              Conv2d: 4-3        [48, 32, 32]      [48, 32, 32]     20,784      [3, 3]    0.85%     21,282,816
                  Conv2d: 4-4        [48, 32, 32]      [48, 32, 32]     20,784      [3, 3]    0.85%     21,282,816
1039        ConvSequence: 2-2        [48, 32, 32]      [96, 16, 16]     –           –         –         –
1040           Conv2d: 3-4           [48, 32, 32]      [96, 32, 32]     41,568      [3, 3]    1.70%     42,565,632
               ResidualBlock: 3-5    [96, 16, 16]      [96, 16, 16]     –           –         –         –
1041              Conv2d: 4-5        [96, 16, 16]      [96, 16, 16]     83,040      [3, 3]    3.39%     21,258,240
                  Conv2d: 4-6        [96, 16, 16]      [96, 16, 16]     83,040      [3, 3]    3.39%     21,258,240
1042           ResidualBlock: 3-6    [96, 16, 16]      [96, 16, 16]     –           –         –         –
                  Conv2d: 4-7        [96, 16, 16]      [96, 16, 16]     83,040      [3, 3]    3.39%     21,258,240
1043              Conv2d: 4-8        [96, 16, 16]      [96, 16, 16]     83,040      [3, 3]    3.39%     21,258,240
1044        ConvSequence: 2-3        [96, 16, 16]      [96, 8, 8]       –           –         –         –
               Conv2d: 3-7           [96, 16, 16]      [96, 16, 16]     83,040      [3, 3]    3.39%     21,258,240
1045           ResidualBlock: 3-8    [96, 8, 8]        [96, 8, 8]       –           –         –         –
                  Conv2d: 4-9        [96, 8, 8]        [96, 8, 8]       83,040      [3, 3]    3.39%     5,314,560
1046              Conv2d: 4-10       [96, 8, 8]        [96, 8, 8]       83,040      [3, 3]    3.39%     5,314,560
1047           ResidualBlock: 3-9    [96, 8, 8]        [96, 8, 8]       –           –         –         –
                  Conv2d: 4-11       [96, 8, 8]        [96, 8, 8]       83,040      [3, 3]    3.39%     5,314,560
1048              Conv2d: 4-12       [96, 8, 8]        [96, 8, 8]       83,040      [3, 3]    3.39%     5,314,560
            Flatten: 2-4             [96, 8, 8]        [6144]           –           –         –         –
1049        ReLU: 2-5                [6144]            [6144]           –           –         –         –
            Linear: 2-6              [6144]            [256]            1,573,120   –         64.19%    1,573,120
1050        ReLU: 2-7                [256]             [256]            –           –         –         –
…
       for PPO, with 64 x 64 input images. The overall parameter count is 976,080, with a total of 260.85M multi-
       adds.
1058
1059    Layer (type:depth-idx)          Input            Output          Param #     Kernel   Param %   Multi-Adds

1060    ImpalaPPOActorCritic            [3, 64, 64]      [15]            –           –        –         –
          Sequential: 1-1               [3, 64, 64]      [256]           –           –        –         –
1061        ConvSequence: 2-1           [3, 64, 64]      [48, 32, 32]    –           –        –         –
               Conv2d: 3-1              [3, 64, 64]      [48, 64, 64]    1,344       [3, 3]   0.14%     5,505,024
1062           ResidualBlock: 3-2       [48, 32, 32]     [48, 32, 32]    –           –        –         –
                  Conv2d: 4-1           [48, 32, 32]     [48, 32, 32]    20,784      [3, 3]   2.13%     21,282,816
1063              Conv2d: 4-2           [48, 32, 32]     [48, 32, 32]    20,784      [3, 3]   2.13%     21,282,816
1064           ResidualBlock: 3-3       [48, 32, 32]     [48, 32, 32]    –           –        –         –
                  Conv2d: 4-3           [48, 32, 32]     [48, 32, 32]    20,784      [3, 3]   2.13%     21,282,816
1065              Conv2d: 4-4           [48, 32, 32]     [48, 32, 32]    20,784      [3, 3]   2.13%     21,282,816
            ConvSequence: 2-2           [48, 32, 32]     [96, 16, 16]    –           –        –         –
1066           Conv2d: 3-4              [48, 32, 32]     [96, 32, 32]    41,568      [3, 3]   4.26%     42,565,632
1067           ResidualBlock: 3-5       [96, 16, 16]     [96, 16, 16]    –           –        –         –
                  Conv2d: 4-5           [96, 16, 16]     [96, 16, 16]    83,040      [3, 3]   8.51%     21,258,240
1068              Conv2d: 4-6           [96, 16, 16]     [96, 16, 16]    83,040      [3, 3]   8.51%     21,258,240
               ResidualBlock: 3-6       [96, 16, 16]     [96, 16, 16]    –           –        –         –
1069              Conv2d: 4-7           [96, 16, 16]     [96, 16, 16]    83,040      [3, 3]   8.51%     21,258,240
                  Conv2d: 4-8           [96, 16, 16]     [96, 16, 16]    83,040      [3, 3]   8.51%     21,258,240
1070        ConvSequence: 2-3           [96, 16, 16]     [96, 8, 8]      –           –        –         –
1071           Conv2d: 3-7              [96, 16, 16]     [96, 16, 16]    83,040      [3, 3]   8.51%     21,258,240
               ResidualBlock: 3-8       [96, 8, 8]       [96, 8, 8]      –           –        –         –
1072              Conv2d: 4-9           [96, 8, 8]       [96, 8, 8]      83,040      [3, 3]   8.51%     5,314,560
                  Conv2d: 4-10          [96, 8, 8]       [96, 8, 8]      83,040      [3, 3]   8.51%     5,314,560
1073           ResidualBlock: 3-9       [96, 8, 8]       [96, 8, 8]      –           –        –         –
1074              Conv2d: 4-11          [96, 8, 8]       [96, 8, 8]      83,040      [3, 3]   8.51%     5,314,560
                  Conv2d: 4-12          [96, 8, 8]       [96, 8, 8]      83,040      [3, 3]   8.51%     5,314,560
1075        AdaptiveAvgPool2d: 2-4      [96, 8, 8]       [96, 2, 2]      –           –        –         –
            Flatten: 2-5                [96, 2, 2]       [384]           –           –        –         –
1076        ReLU: 2-6                   [384]            [384]           –           –        –         –
            Linear: 2-7                 [384]            [256]           98,560      –        10.10%    98,560
…
