…
                             CIFAR-10N         50,000       10,000       10         32x32x3
1119
                             CIFAR-100N        50,000       10,000       100        32x32x3
1120                         Clothing1M        1,000,000    10,000       14         224x224x3
1121                         ANIMAL-10N        50,000       5,000        10         64x64x3

1122
                     Table 6: Summary of datasets and their partitioning in the experiments.
1123
1124
1125
       D.2   N ETWORK S TRUCTURES
1126
1127                                         Layer (type)   Output Shape       Param #
1128                                         Conv2d-1       [-1, 10, 24, 24]   260
                                             Conv2d-2       [-1, 20, 8, 8]     5020
1129                                         Dropout2d-3    [-1, 20, 8, 8]     0
1130                                         Linear-4       [-1, 50]           16050
                                             Linear-5       [-1, 10]           510
1131
1132
                                        Table 7: MNIST Network Structure.
1133



                                                               21
       Under review as a conference paper at ICLR 2025


1134                                  Layer (type)   Output Shape       Param #
1135                                  Conv2d-1       [-1, 32, 28, 28]   320
                                      Conv2d-2       [-1, 64, 12, 12]   18496
1136                                  Dropout2d-3    [-1, 64, 12, 12]   0
1137                                  Linear-4       [-1, 600]          1383000
                                      Linear-5       [-1, 120]          72120
1138                                  Linear-6       [-1, 10]           1210
1139
1140                            Table 8: Fashion-MNIST Network Structure.
1141
1142                                 Layer (type)    Output Shape       Param #
1143                                 Conv2d-1        [-1, 64, 16, 16]   1,792
                                     MaxPool2d-2     [-1, 64, 8, 8]     0
1144
                                     Conv2d-3        [-1, 192, 8, 8]    110,784
1145                                 MaxPool2d-4     [-1, 192, 4, 4]    0
1146                                 Conv2d-5        [-1, 384, 4, 4]    663,936
                                     Conv2d-6        [-1, 256, 4, 4]    884,992
1147                                 Conv2d-7        [-1, 256, 4, 4]    590,080
1148                                 MaxPool2d-8     [-1, 256, 2, 2]    0
                                     Linear-9        [-1, 4096]         4,198,400
1149                                 Linear-10       [-1, 4096]         16,781,312
1150                                 Linear-11       [-1, 10]           40,970
1151
1152
                                   Table 9: CIFAR-10 Network Structure.
1153
1154                                  Dataset          Structure
                                      CIFAR-10N        ResNet18 (Non-pretrained )
1155                                  CIFAR-100N       ResNet18 (Non-pretrained )
1156                                  Clothing1M       ResNet50 (Non-pretrained )
1157                                  ANIMAL-10N       ResNet18 (Non-pretrained )
…
