…
861   Listings 2 and 3 shows the details of the backbone of T2L. Specifically, the size of the module and
862   layer embedding (E[m] and E[l]) is 32D. Together, they form a dictionary of 34 learnable embeddings
863   (32 layers + 2 target modules). The task encoder is a linear layer that takes in a text embedding
      (1024D for the gte embedding and 4096D for Mistral embedding) and outputs a 64D vector. The


                                                          16
      Under review as a conference paper at ICLR 2025


864
      Hypermod: HyperModulator(
865     (task_encoder): TaskEncoder(
866       (mlp): Sequential(
            (0): Linear(in_features=1024, out_features=64, bias=True)
867         (1): LayerNorm((64,), eps=1e-05, elementwise_affine=True)
868       )
        )
869     (layer_depth_encoder): Sequential(
870       (0): Embedding(32, 32)
          (1): LayerNorm((32,), eps=1e-05, elementwise_affine=True)
871     )
872     (layer_type_encoder): Sequential(
          (0): Embedding(2, 32)
873       (1): LayerNorm((32,), eps=1e-05, elementwise_affine=True)
874     )
        (mixer): Sequential(
875       (0): Linear(in_features=128, out_features=512, bias=True)
876       (1): SiLU()
          (2): Dropout(p=0.05, inplace=False)
877       (3): Linear(in_features=512, out_features=128, bias=True)
878       (4): SiLU()
          (5): Dropout(p=0.05, inplace=False)
879     )
880     (mlp1): MLPResidualBlock(
          (mlp): Sequential(
881         (0): LayerNorm((128,), eps=1e-05, elementwise_affine=True)
882         (1): Linear(in_features=128, out_features=512, bias=True)
            (2): SiLU()
883         (3): Dropout(p=0.05, inplace=False)
884         (4): Linear(in_features=512, out_features=128, bias=True)
            (5): SiLU()
885         (6): Dropout(p=0.05, inplace=False)
886       )
        )
887     (mlp2): MLPResidualBlock(
888       (mlp): Sequential(
            (0): LayerNorm((128,), eps=1e-05, elementwise_affine=True)
889         (1): Linear(in_features=128, out_features=512, bias=True)
890         (2): SiLU()
            (3): Dropout(p=0.05, inplace=False)
891         (4): Linear(in_features=512, out_features=128, bias=True)
892         (5): SiLU()
            (6): Dropout(p=0.05, inplace=False)
893       )
894     )
        (mlp3): Sequential(
895       (0): LayerNorm((128,), eps=1e-05, elementwise_affine=True)
896       (1): Linear(in_features=128, out_features=512, bias=True)
          (2): SiLU()
897       (3): Dropout(p=0.05, inplace=False)
898       (4): Linear(in_features=512, out_features=512, bias=True)
          (5): SiLU()
899     )
900   )

901
902                                Listing 2: Detailed backbone architecture.
903
904
905   encoded task, module, and layer embedding are concatenated and then fed into mlp0 followed by
906   a residual MLP block mlp1. At this point, for M and S , we add a 128D A/B embbedding to the
907   residual stream. The output is then fed to another residual MLP block mlp2. At this point, for S , we
…
