…
       In this section, we present the architectural details of our proposed BiAN. As shown in Figure 2, the architec-
1005
       ture can be divided into domain-specific feature extractors (gS/T ), density map regression layers (f ), domain
1006
       discriminator (fd ), condition-consistent layers (fc ). The total parameters amount of BiAN is 70,755,271 with
1007   an estimated model size of 2783.41 MB.
1008
1009                                Table 6: Architecture of feature extractor in BiAN.
1010
1011
                      Layer (Type: Depth-Idx)             Output Shape             Parameters (#)
                      Conv2d: 3-1                         [32, 256, 256]                 384
1012
                      Conv2d: 3-2                         [32, 256, 256]                9,312
1013
                      MaxPool2d: 3-3                      [32, 128, 128]                  –
1014                  Conv2d: 3-4                         [64, 128, 128]               18,624
1015                  Conv2d: 3-5                         [64, 128, 128]               37,056
1016                  MaxPool2d: 3-6                        [64, 64, 64]                  –
1017                  Conv2d: 3-7                          [128, 64, 64]               74,112
1018                  Conv2d: 3-8                          [128, 64, 64]              147,840
1019                  MaxPool2d: 3-9                       [128, 32, 32]                  –
1020                  Conv2d: 3-10                         [256, 32, 32]              295,680
1021                  Conv2d: 3-11                         [256, 32, 32]              590,592
1022
                      SelfAttention: 3-12                  [256, 32, 32]              263,424
1023
1024   The domain-specific feature extractors (gs/t ), detailed in Appendix A.9, are responsible for capturing rel-
1025
       evant features from the input data in both source and target domains. Specifically, the input is resized as
       256×256 px. And the network arguments are independent among gs and gt , but same architecture for
1026
       similar feature retrieval.
1027
1028   The density map regression layers (f ), detailed in Table 7, are designed to predict density maps from the
…
1064
1065
1066
1067
1068
1069
1070
1071
1072
       Figure 5: The network architecture visualization of BiAN. Note: The sample input is 16×1×256×256 px.
1073   Then estimated allocated memory is 4.7 GiB.
1074
1075
1076
1077
1078
1079
1080


                                                    23
       Under review as a conference paper at ICLR 2025


1081                               Table 7: Architecture of regression layers in BiAN.
1082
1083                  Layer (Type: Depth-Idx)            Output Shape             Parameters (#)
1084                  Deconv2d: 3-13                      [128, 64, 64]              131,456
1085                  Conv2d: 3-14                        [128, 64, 64]              295,296
1086                  Conv2d: 3-15                        [128, 64, 64]              147,840
1087                  Deconv2d: 3-16                     [64, 128, 128]               32,960
1088
                      Conv2d: 3-17                       [64, 128, 128]               73,920
                      Conv2d: 3-18                       [64, 128, 128]               37,056
1089
                      Deconv2d: 3-19                     [32, 256, 256]               8,288
1090
                      Conv2d: 3-20                       [32, 256, 256]               18,528
1091                  Conv2d: 3-21                       [32, 256, 256]               9,312
1092                  Conv2d: 3-22                        [1, 256, 256]                 33
1093
1094                          Table 8: Architecture of domain discriminate layers in BiAN.
1095
1096                  Layer (Type: Depth-Idx)            Output Shape             Parameters (#)
1097                  Linear2d: 3-23                        [256]                   67,109,632
1098                  Linear2d: 3-24                         [64]                     16,576
1099                  Dropout1d: 3-25                        [64]                        –
…
