…
928                               1    X
929
                          Ls =                  C1 [∥ϕf or (S) − ϕf or (S ′ )∥2 − d0 ]2 ,
                                 |D|     ′
                                     (S,S )∈D
930
931   for some positive constant C1 . These components combine into the final penalty function:
932
                                                Lpenalty = Ls + Lc .
933
934
935   The forward model architecture is as follow:
936
937        Forward_model(
938      (encoder): Encoder_linear(
939        (activation): ReLU()
940        (encoder_net): Sequential(
941
             (0): Linear(in_features=300, out_features=64, bias=True)
             (1): ReLU()
942
             (2): Linear(in_features=64, out_features=64, bias=True)
943
             (3): ReLU()
944          (4): Dropout(p=0.2, inplace=False)
945          (5): Linear(in_features=64, out_features=64, bias=True)
946          (6): ReLU()
947          (7): Dropout(p=0.2, inplace=False)
948          (8): Linear(in_features=64, out_features=100, bias=True)
949        )
950      )
951      (transition): Transition(
952
           (activation): ReLU()
           (T_net): Sequential(
953
             (0): Linear(in_features=100, out_features=64, bias=True)
954
             (1): ReLU()
955          (2): Linear(in_features=64, out_features=64, bias=True)
956          (3): ReLU()
957          (4): Dropout(p=0.2, inplace=False)
958          (5): Linear(in_features=64, out_features=64, bias=True)
959        )
960        (lstm): LSTMCell(64, 128)
961        (tanh): Tanh()
962      )
963
         (reward): Reward(
           (activation): ReLU()
964
           (reward_net): Sequential(
965
             (0): Linear(in_features=100, out_features=64, bias=True)
966          (1): ReLU()
967          (2): Linear(in_features=64, out_features=64, bias=True)
968          (3): ReLU()
969          (4): Dropout(p=0.2, inplace=False)
970          (5): Linear(in_features=64, out_features=64, bias=True)
971          (6): ReLU()
             (7): Dropout(p=0.2, inplace=False)


                                                        18
       Under review as a conference paper at ICLR 2025


972
973    Table B.1: Hyper-parameters information. m is the input feature dimension, and ∗∗ means no value.
974                     Hyper-parameters      Values         Hyper-parameters       Values
…
                                 γ1                1                     γ2                1
978                              λ1            min(1, 20                               min(1, 20
                                                      m)                 λ2                   m)
979                              C0                1                     C0               ∗∗
980                              C1                1                     C1                1
981                              d0             0.15m                    d0             0.15m
982
983
984
985
                (8): Linear(in_features=64, out_features=64, bias=True)
                (9): ReLU()
986
                (10): Dropout(p=0.2, inplace=False)
987
                (11): Linear(in_features=64, out_features=64, bias=True)
988             (12): ReLU()
989             (13): Dropout(p=0.2, inplace=False)
990             (14): Linear(in_features=64, out_features=2, bias=True)
991          )
992        )
993        (FQE): FQE(
994          (activation): ReLU()
995          (action_net): Sequential(
996
               (0): Linear(in_features=1, out_features=16, bias=True)
               (1): ReLU()
997
               (2): Linear(in_features=16, out_features=100, bias=True)
998
             )
999          (xa_net): Linear(in_features=200, out_features=100, bias=True)
1000         (FQE_net): Sequential(
1001           (0): Linear(in_features=100, out_features=64, bias=True)
1002           (1): ReLU()
1003           (2): Linear(in_features=64, out_features=64, bias=True)
1004           (3): ReLU()
1005           (4): Dropout(p=0.2, inplace=False)
1006           (5): Linear(in_features=64, out_features=64, bias=True)
1007
               (6): ReLU()
               (7): Dropout(p=0.2, inplace=False)
1008
               (8): Linear(in_features=64, out_features=2, bias=True)
1009
             )
1010       )
1011   )
1012
1013
1014
1015   B.2   I MPLEMENTATION DETAILS FOR BACKWARD ABSTRACTION
1016
1017   We provide details for implementing the proposed backward abstraction in this subsection. Similar
1018   to Section B.1, we use deep neural networks to parameterize the abstraction ϕback and estimate the
1019   parameters by solving the following loss function,
…
1043   policy π to b. This motivates us to leverage the two objectives Linv and Lratio used by Allen et al.
1044   (2021) for training MSA. More details regarding these losses can be found in Section 5 of Allen et al.
1045
       (2021). Note that to obtain non-sequential states (s, s̃) used in Lratio , we flip s′ in the pairs (s, s′ ) in
       each batch instead of shuffling.
1046
1047
       Finally, Ls corresponds to the smoothness penalty introduced in Section B.1. The backward model
1048   architecture is:
1049
1050
            Backward_model(
1051
          (encoder): Encoder_linear(
1052        (activation): ReLU()
1053        (encoder_net): Sequential(
1054          (0): Linear(in_features=100, out_features=64, bias=True)
1055          (1): ReLU()
1056          (2): Linear(in_features=64, out_features=64, bias=True)
1057          (3): ReLU()
1058          (4): Dropout(p=0.2, inplace=False)
1059          (5): Linear(in_features=64, out_features=64, bias=True)
1060
              (6): ReLU()
              (7): Dropout(p=0.2, inplace=False)
1061
              (8): Linear(in_features=64, out_features=6, bias=True)
1062
            )
1063      )
1064      (inverse): Inverse(
1065        (activation): ReLU()
1066        (inverse_net): Sequential(
1067          (0): Linear(in_features=12, out_features=64, bias=True)
1068          (1): ReLU()
1069          (2): Linear(in_features=64, out_features=64, bias=True)
1070          (3): ReLU()
1071
              (4): Dropout(p=0.3, inplace=False)
              (5): Linear(in_features=64, out_features=64, bias=True)
1072
              (6): ReLU()
1073
              (7): Dropout(p=0.3, inplace=False)
1074          (8): Linear(in_features=64, out_features=64, bias=True)
1075          (9): ReLU()
1076          (10): Dropout(p=0.3, inplace=False)
1077          (11): Linear(in_features=64, out_features=64, bias=True)
1078          (12): ReLU()
1079          (13): Dropout(p=0.3, inplace=False)
              (14): Linear(in_features=64, out_features=1, bias=True)


                                                            20
       Under review as a conference paper at ICLR 2025


1080
             )
1081       )
1082       (density): Density(
1083         (activation): ReLU()
1084         (density_net): Sequential(
1085           (0): Linear(in_features=12, out_features=64, bias=True)
1086           (1): ReLU()
1087           (2): Linear(in_features=64, out_features=64, bias=True)
1088           (3): ReLU()
1089
               (4): Dropout(p=0.3, inplace=False)
               (5): Linear(in_features=64, out_features=64, bias=True)
1090
               (6): ReLU()
1091
               (7): Dropout(p=0.3, inplace=False)
1092           (8): Linear(in_features=64, out_features=64, bias=True)
1093           (9): ReLU()
1094           (10): Dropout(p=0.3, inplace=False)
1095           (11): Linear(in_features=64, out_features=64, bias=True)
1096           (12): ReLU()
1097           (13): Dropout(p=0.3, inplace=False)
1098           (14): Linear(in_features=64, out_features=1, bias=True)
1099         )
1100
           )
           (rho): Rho(
1101
             (activation): ReLU()
1102
             (rho_net): Sequential(
1103           (0): Linear(in_features=6, out_features=64, bias=True)
1104           (1): ReLU()
1105           (2): Linear(in_features=64, out_features=64, bias=True)
1106           (3): ReLU()
1107           (4): Dropout(p=0.3, inplace=False)
1108           (5): Linear(in_features=64, out_features=64, bias=True)
1109           (6): ReLU()
1110           (7): Dropout(p=0.3, inplace=False)
1111
               (8): Linear(in_features=64, out_features=2, bias=True)
             )
1112
           )
1113
       )
1114
1115
1116   C     A DDITIONAL E XPERIMENTAL D ETAILS
1117
1118
1119   C.1   R EPRODUCIBILITY
1120
1121   We release our code and data on the website at
1122   https://anonymous.4open.science/r/state-abstraction-588A/README.md
1123
       The hyper-parameters to train the proposed forward and backward abstractions can be found in
…
