…
Under review as a conference paper at ICLR 2024


F    A RCHITECTURE D ETAILS ALONG WITH FEATHER A DAPTERS

In this section, we report the architecture-specific details used for adapter parameters. For
CIFAR100-to-CIFAR100C experiments, we modify the widely used ResNeXt-29 architecture taken
from RobustBench Croce et al. (2021) and added adapters in between referred to as ConvAdapt
layers. For ImageNet-to-ImageNetC, we modify the ResNet-50 architecture and add adapter layers
in between. The added adapter layers are kept in bold.
ResNeXt-29 with adapters for CIFAR100-to-CIFAR100C

Hendrycks2020AugMixResNeXtNetAdpt(
        (conv_1_3x3): Conv2d(3, 64, kernel_size=(3, 3), stride=(1, 1), padding=(1, 1), bias=False)
  (bn_1): BatchNorm2d(64, eps=1e-05, momentum=0.1, affine=True, track_running_stats=False)
  (stage_1): Sequential(
    (0): ResNeXtBottleneck(
      (conv_reduce): Conv2d(64, 128, kernel_size=(1, 1), stride=(1, 1), bias=False)
      (bn_reduce): BatchNorm2d(128, eps=1e-05, momentum=0.1, affine=True, track_running_stats=False)
      (conv_conv): Conv2d(128, 128, kernel_size=(3, 3), stride=(1, 1), padding=(1, 1), groups=4, bias=False)
      (bn): BatchNorm2d(128, eps=1e-05, momentum=0.1, affine=True, track_running_stats=False)
      (conv_expand): Conv2d(128, 256, kernel_size=(1, 1), stride=(1, 1), bias=False)
      (bn_expand): BatchNorm2d(256, eps=1e-05, momentum=0.1, affine=True, track_running_stats=False)
      (downsample): Sequential(
        (0): Conv2d(64, 256, kernel_size=(1, 1), stride=(1, 1), bias=False)
        (1): BatchNorm2d(256, eps=1e-05, momentum=0.1, affine=True, track_running_stats=False)
      )
    )
    (1): ResNeXtBottleneck(
      (conv_reduce): Conv2d(256, 128, kernel_size=(1, 1), stride=(1, 1), bias=False)
      (bn_reduce): BatchNorm2d(128, eps=1e-05, momentum=0.1, affine=True, track_running_stats=False)
      (conv_conv): Conv2d(128, 128, kernel_size=(3, 3), stride=(1, 1), padding=(1, 1), groups=4, bias=False)
      (bn): BatchNorm2d(128, eps=1e-05, momentum=0.1, affine=True, track_running_stats=False)
      (conv_expand): Conv2d(128, 256, kernel_size=(1, 1), stride=(1, 1), bias=False)
      (bn_expand): BatchNorm2d(256, eps=1e-05, momentum=0.1, affine=True, track_running_stats=False)
    )
    (2): ResNeXtBottleneck(
      (conv_reduce): Conv2d(256, 128, kernel_size=(1, 1), stride=(1, 1), bias=False)
      (bn_reduce): BatchNorm2d(128, eps=1e-05, momentum=0.1, affine=True, track_running_stats=False)
      (conv_conv): Conv2d(128, 128, kernel_size=(3, 3), stride=(1, 1), padding=(1, 1), groups=4, bias=False)
      (bn): BatchNorm2d(128, eps=1e-05, momentum=0.1, affine=True, track_running_stats=False)
      (conv_expand): Conv2d(128, 256, kernel_size=(1, 1), stride=(1, 1), bias=False)
      (bn_expand): BatchNorm2d(256, eps=1e-05, momentum=0.1, affine=True, track_running_stats=False)
    )
  )
  (stage_2): Sequential(
    (0): ResNeXtBottleneck(
      (conv_reduce): Conv2d(256, 256, kernel_size=(1, 1), stride=(1, 1), bias=False)
      (bn_reduce): BatchNorm2d(256, eps=1e-05, momentum=0.1, affine=True, track_running_stats=False)
      (conv_conv): Conv2d(256, 256, kernel_size=(3, 3), stride=(2, 2), padding=(1, 1), groups=4, bias=False)
      (bn): BatchNorm2d(256, eps=1e-05, momentum=0.1, affine=True, track_running_stats=False)
      (conv_expand): Conv2d(256, 512, kernel_size=(1, 1), stride=(1, 1), bias=False)
      (bn_expand): BatchNorm2d(512, eps=1e-05, momentum=0.1, affine=True, track_running_stats=False)
      (downsample): Sequential(
        (0): Conv2d(256, 512, kernel_size=(1, 1), stride=(2, 2), bias=False)
        (1): BatchNorm2d(512, eps=1e-05, momentum=0.1, affine=True, track_running_stats=False)
      )
    )
    (1): ResNeXtBottleneckAdpt(
      (conv_reduce): Conv2d(512, 256, kernel_size=(1, 1), stride=(1, 1), bias=False)
      (bn_reduce): BatchNorm2d(256, eps=1e-05, momentum=0.1, affine=True, track_running_stats=False)
      (lhc1): ConvAdapt(
        (gwc): Conv2d(256, 256, kernel_size=(3, 3), stride=(1, 1), padding=(1, 1), groups=32)
        (pwc): Conv2d(256, 256, kernel_size=(1, 1), stride=(1, 1))
      )
      (conv_conv): Conv2d(256, 256, kernel_size=(3, 3), stride=(1, 1), padding=(1, 1), groups=4, bias=False)
      (bn): BatchNorm2d(256, eps=1e-05, momentum=0.1, affine=True, track_running_stats=False)
      (lhc2): ConvAdapt(
        (gwc): Conv2d(256, 256, kernel_size=(3, 3), stride=(1, 1), padding=(1, 1), groups=32)
        (pwc): Conv2d(256, 256, kernel_size=(1, 1), stride=(1, 1))
      )
      (conv_expand): Conv2d(256, 512, kernel_size=(1, 1), stride=(1, 1), bias=False)
      (bn_expand): BatchNorm2d(512, eps=1e-05, momentum=0.1, affine=True, track_running_stats=False)
      (lhc3): ConvAdapt(
        (gwc): Conv2d(512, 512, kernel_size=(3, 3), stride=(1, 1), padding=(1, 1), groups=64)
        (pwc): Conv2d(512, 512, kernel_size=(1, 1), stride=(1, 1))
      )
    )
    (2): ResNeXtBottleneck(
      (conv_reduce): Conv2d(512, 256, kernel_size=(1, 1), stride=(1, 1), bias=False)
      (bn_reduce): BatchNorm2d(256, eps=1e-05, momentum=0.1, affine=True, track_running_stats=False)
      (conv_conv): Conv2d(256, 256, kernel_size=(3, 3), stride=(1, 1), padding=(1, 1), groups=4, bias=False)
      (bn): BatchNorm2d(256, eps=1e-05, momentum=0.1, affine=True, track_running_stats=False)
      (conv_expand): Conv2d(256, 512, kernel_size=(1, 1), stride=(1, 1), bias=False)
      (bn_expand): BatchNorm2d(512, eps=1e-05, momentum=0.1, affine=True, track_running_stats=False)
    )
  )
  (stage_3): Sequential(
    (0): ResNeXtBottleneck(


                                                     18
Under review as a conference paper at ICLR 2024


       (conv_reduce): Conv2d(512, 512, kernel_size=(1, 1), stride=(1, 1), bias=False)
       (bn_reduce): BatchNorm2d(512, eps=1e-05, momentum=0.1, affine=True, track_running_stats=False)
       (conv_conv): Conv2d(512, 512, kernel_size=(3, 3), stride=(2, 2), padding=(1, 1), groups=4, bias=False)
       (bn): BatchNorm2d(512, eps=1e-05, momentum=0.1, affine=True, track_running_stats=False)
       (conv_expand): Conv2d(512, 1024, kernel_size=(1, 1), stride=(1, 1), bias=False)
       (bn_expand): BatchNorm2d(1024, eps=1e-05, momentum=0.1, affine=True, track_running_stats=False)
       (downsample): Sequential(
         (0): Conv2d(512, 1024, kernel_size=(1, 1), stride=(2, 2), bias=False)
         (1): BatchNorm2d(1024, eps=1e-05, momentum=0.1, affine=True, track_running_stats=False)
       )
     )
     (1): ResNeXtBottleneck(
       (conv_reduce): Conv2d(1024, 512, kernel_size=(1, 1), stride=(1, 1), bias=False)
       (bn_reduce): BatchNorm2d(512, eps=1e-05, momentum=0.1, affine=True, track_running_stats=False)
       (conv_conv): Conv2d(512, 512, kernel_size=(3, 3), stride=(1, 1), padding=(1, 1), groups=4, bias=False)
       (bn): BatchNorm2d(512, eps=1e-05, momentum=0.1, affine=True, track_running_stats=False)
       (conv_expand): Conv2d(512, 1024, kernel_size=(1, 1), stride=(1, 1), bias=False)
       (bn_expand): BatchNorm2d(1024, eps=1e-05, momentum=0.1, affine=True, track_running_stats=False)
     )
     (2): ResNeXtBottleneck(
       (conv_reduce): Conv2d(1024, 512, kernel_size=(1, 1), stride=(1, 1), bias=False)
       (bn_reduce): BatchNorm2d(512, eps=1e-05, momentum=0.1, affine=True, track_running_stats=False)
       (conv_conv): Conv2d(512, 512, kernel_size=(3, 3), stride=(1, 1), padding=(1, 1), groups=4, bias=False)
       (bn): BatchNorm2d(512, eps=1e-05, momentum=0.1, affine=True, track_running_stats=False)
       (conv_expand): Conv2d(512, 1024, kernel_size=(1, 1), stride=(1, 1), bias=False)
       (bn_expand): BatchNorm2d(1024, eps=1e-05, momentum=0.1, affine=True, track_running_stats=False)
     )
    )
    (avgpool): AdaptiveAvgPool2d(output_size=(1, 1))
    (classifier): Linear(in_features=1024, out_features=100, bias=True)
)


ResNet-50 with adapters for ImageNet-to-ImageNetC
ResNetAdapt(
    (conv1): Conv2d(3, 64, kernel_size=(7, 7), stride=(2, 2), padding=(3, 3), bias=False)
    (bn1): BatchNorm2d(64, eps=1e-05, momentum=0.1, affine=True, track_running_stats=False)
    (relu): ReLU(inplace=True)
    (maxpool): MaxPool2d(kernel_size=3, stride=2, padding=1, dilation=1, ceil_mode=False)
    (layer1): Sequential(
      (0): BottleneckAdpt(
        (conv1): Conv2d(64, 64, kernel_size=(1, 1), stride=(1, 1), bias=False)
        (lhc1): ConvAdapt(
          (gwc): Conv2d(64, 64, kernel_size=(3, 3), stride=(1, 1), padding=(1, 1), groups=8)
          (pwc): Conv2d(64, 64, kernel_size=(1, 1), stride=(1, 1))
        )
        (bn1): BatchNorm2d(64, eps=1e-05, momentum=0.1, affine=True, track_running_stats=False)
        (conv2): Conv2d(64, 64, kernel_size=(3, 3), stride=(1, 1), padding=(1, 1), bias=False)
        (lhc2): ConvAdapt(
          (gwc): Conv2d(64, 64, kernel_size=(3, 3), stride=(1, 1), padding=(1, 1), groups=8)
          (pwc): Conv2d(64, 64, kernel_size=(1, 1), stride=(1, 1))
        )
        (bn2): BatchNorm2d(64, eps=1e-05, momentum=0.1, affine=True, track_running_stats=False)
        (conv3): Conv2d(64, 256, kernel_size=(1, 1), stride=(1, 1), bias=False)
        (bn3): BatchNorm2d(256, eps=1e-05, momentum=0.1, affine=True, track_running_stats=False)
        (relu): ReLU(inplace=True)
        (downsample): Sequential(
          (0): Conv2d(64, 256, kernel_size=(1, 1), stride=(1, 1), bias=False)
          (1): BatchNorm2d(256, eps=1e-05, momentum=0.1, affine=True, track_running_stats=False)
        )
      )
      (1): BottleneckAdpt(
        (conv1): Conv2d(256, 64, kernel_size=(1, 1), stride=(1, 1), bias=False)
        (lhc1): ConvAdapt(
          (gwc): Conv2d(64, 64, kernel_size=(3, 3), stride=(1, 1), padding=(1, 1), groups=8)
          (pwc): Conv2d(64, 64, kernel_size=(1, 1), stride=(1, 1))
        )
        (bn1): BatchNorm2d(64, eps=1e-05, momentum=0.1, affine=True, track_running_stats=False)
        (conv2): Conv2d(64, 64, kernel_size=(3, 3), stride=(1, 1), padding=(1, 1), bias=False)
        (lhc2): ConvAdapt(
          (gwc): Conv2d(64, 64, kernel_size=(3, 3), stride=(1, 1), padding=(1, 1), groups=8)
          (pwc): Conv2d(64, 64, kernel_size=(1, 1), stride=(1, 1))
        )
        (bn2): BatchNorm2d(64, eps=1e-05, momentum=0.1, affine=True, track_running_stats=False)
        (conv3): Conv2d(64, 256, kernel_size=(1, 1), stride=(1, 1), bias=False)
        (bn3): BatchNorm2d(256, eps=1e-05, momentum=0.1, affine=True, track_running_stats=False)
        (relu): ReLU(inplace=True)
      )
      (2): BottleneckAdpt(
        (conv1): Conv2d(256, 64, kernel_size=(1, 1), stride=(1, 1), bias=False)
        (lhc1): ConvAdapt(
          (gwc): Conv2d(64, 64, kernel_size=(3, 3), stride=(1, 1), padding=(1, 1), groups=8)
          (pwc): Conv2d(64, 64, kernel_size=(1, 1), stride=(1, 1))
        )
        (bn1): BatchNorm2d(64, eps=1e-05, momentum=0.1, affine=True, track_running_stats=False)
        (conv2): Conv2d(64, 64, kernel_size=(3, 3), stride=(1, 1), padding=(1, 1), bias=False)
        (lhc2): ConvAdapt(
          (gwc): Conv2d(64, 64, kernel_size=(3, 3), stride=(1, 1), padding=(1, 1), groups=8)
          (pwc): Conv2d(64, 64, kernel_size=(1, 1), stride=(1, 1))
        )
        (bn2): BatchNorm2d(64, eps=1e-05, momentum=0.1, affine=True, track_running_stats=False)


                                                       19
Under review as a conference paper at ICLR 2024


      (conv3): Conv2d(64, 256, kernel_size=(1, 1), stride=(1, 1), bias=False)
      (bn3): BatchNorm2d(256, eps=1e-05, momentum=0.1, affine=True, track_running_stats=False)
      (relu): ReLU(inplace=True)
     )
   )
   (layer2): Sequential(
     (0): BottleneckAdpt(
       (conv1): Conv2d(256, 128, kernel_size=(1, 1), stride=(1, 1), bias=False)
       (lhc1): ConvAdapt(
         (gwc): Conv2d(128, 128, kernel_size=(3, 3), stride=(1, 1), padding=(1, 1), groups=16)
         (pwc): Conv2d(128, 128, kernel_size=(1, 1), stride=(1, 1))
       )
       (bn1): BatchNorm2d(128, eps=1e-05, momentum=0.1, affine=True, track_running_stats=False)
       (conv2): Conv2d(128, 128, kernel_size=(3, 3), stride=(2, 2), padding=(1, 1), bias=False)
       (lhc2): ConvAdapt(
         (gwc): Conv2d(128, 128, kernel_size=(3, 3), stride=(1, 1), padding=(1, 1), groups=16)
         (pwc): Conv2d(128, 128, kernel_size=(1, 1), stride=(1, 1))
       )
       (bn2): BatchNorm2d(128, eps=1e-05, momentum=0.1, affine=True, track_running_stats=False)
       (conv3): Conv2d(128, 512, kernel_size=(1, 1), stride=(1, 1), bias=False)
       (bn3): BatchNorm2d(512, eps=1e-05, momentum=0.1, affine=True, track_running_stats=False)
       (relu): ReLU(inplace=True)
       (downsample): Sequential(
         (0): Conv2d(256, 512, kernel_size=(1, 1), stride=(2, 2), bias=False)
         (1): BatchNorm2d(512, eps=1e-05, momentum=0.1, affine=True, track_running_stats=False)
       )
     )
     (1): BottleneckAdpt(
       (conv1): Conv2d(512, 128, kernel_size=(1, 1), stride=(1, 1), bias=False)
       (lhc1): ConvAdapt(
         (gwc): Conv2d(128, 128, kernel_size=(3, 3), stride=(1, 1), padding=(1, 1), groups=16)
         (pwc): Conv2d(128, 128, kernel_size=(1, 1), stride=(1, 1))
       )
       (bn1): BatchNorm2d(128, eps=1e-05, momentum=0.1, affine=True, track_running_stats=False)
       (conv2): Conv2d(128, 128, kernel_size=(3, 3), stride=(1, 1), padding=(1, 1), bias=False)
       (lhc2): ConvAdapt(
         (gwc): Conv2d(128, 128, kernel_size=(3, 3), stride=(1, 1), padding=(1, 1), groups=16)
         (pwc): Conv2d(128, 128, kernel_size=(1, 1), stride=(1, 1))
       )
       (bn2): BatchNorm2d(128, eps=1e-05, momentum=0.1, affine=True, track_running_stats=False)
       (conv3): Conv2d(128, 512, kernel_size=(1, 1), stride=(1, 1), bias=False)
       (bn3): BatchNorm2d(512, eps=1e-05, momentum=0.1, affine=True, track_running_stats=False)
       (relu): ReLU(inplace=True)
     )
     (2): BottleneckAdpt(
       (conv1): Conv2d(512, 128, kernel_size=(1, 1), stride=(1, 1), bias=False)
       (lhc1): ConvAdapt(
         (gwc): Conv2d(128, 128, kernel_size=(3, 3), stride=(1, 1), padding=(1, 1), groups=16)
         (pwc): Conv2d(128, 128, kernel_size=(1, 1), stride=(1, 1))
       )
       (bn1): BatchNorm2d(128, eps=1e-05, momentum=0.1, affine=True, track_running_stats=False)
       (conv2): Conv2d(128, 128, kernel_size=(3, 3), stride=(1, 1), padding=(1, 1), bias=False)
       (lhc2): ConvAdapt(
         (gwc): Conv2d(128, 128, kernel_size=(3, 3), stride=(1, 1), padding=(1, 1), groups=16)
         (pwc): Conv2d(128, 128, kernel_size=(1, 1), stride=(1, 1))
       )
       (bn2): BatchNorm2d(128, eps=1e-05, momentum=0.1, affine=True, track_running_stats=False)
       (conv3): Conv2d(128, 512, kernel_size=(1, 1), stride=(1, 1), bias=False)
       (bn3): BatchNorm2d(512, eps=1e-05, momentum=0.1, affine=True, track_running_stats=False)
       (relu): ReLU(inplace=True)
     )
     (3): BottleneckAdpt(
       (conv1): Conv2d(512, 128, kernel_size=(1, 1), stride=(1, 1), bias=False)
       (lhc1): ConvAdapt(
         (gwc): Conv2d(128, 128, kernel_size=(3, 3), stride=(1, 1), padding=(1, 1), groups=16)
         (pwc): Conv2d(128, 128, kernel_size=(1, 1), stride=(1, 1))
       )
       (bn1): BatchNorm2d(128, eps=1e-05, momentum=0.1, affine=True, track_running_stats=False)
       (conv2): Conv2d(128, 128, kernel_size=(3, 3), stride=(1, 1), padding=(1, 1), bias=False)
       (lhc2): ConvAdapt(
         (gwc): Conv2d(128, 128, kernel_size=(3, 3), stride=(1, 1), padding=(1, 1), groups=16)
         (pwc): Conv2d(128, 128, kernel_size=(1, 1), stride=(1, 1))
       )
       (bn2): BatchNorm2d(128, eps=1e-05, momentum=0.1, affine=True, track_running_stats=False)
       (conv3): Conv2d(128, 512, kernel_size=(1, 1), stride=(1, 1), bias=False)
       (bn3): BatchNorm2d(512, eps=1e-05, momentum=0.1, affine=True, track_running_stats=False)
       (relu): ReLU(inplace=True)
     )
   )
   (layer3): Sequential(
     (0): BottleneckAdpt(
       (conv1): Conv2d(512, 256, kernel_size=(1, 1), stride=(1, 1), bias=False)
       (lhc1): ConvAdapt(
         (gwc): Conv2d(256, 256, kernel_size=(3, 3), stride=(1, 1), padding=(1, 1), groups=32)
         (pwc): Conv2d(256, 256, kernel_size=(1, 1), stride=(1, 1))
       )
       (bn1): BatchNorm2d(256, eps=1e-05, momentum=0.1, affine=True, track_running_stats=False)
       (conv2): Conv2d(256, 256, kernel_size=(3, 3), stride=(2, 2), padding=(1, 1), bias=False)
       (lhc2): ConvAdapt(
         (gwc): Conv2d(256, 256, kernel_size=(3, 3), stride=(1, 1), padding=(1, 1), groups=32)
         (pwc): Conv2d(256, 256, kernel_size=(1, 1), stride=(1, 1))
       )


                                                    20
Under review as a conference paper at ICLR 2024


      (bn2): BatchNorm2d(256, eps=1e-05, momentum=0.1, affine=True, track_running_stats=False)
      (conv3): Conv2d(256, 1024, kernel_size=(1, 1), stride=(1, 1), bias=False)
      (bn3): BatchNorm2d(1024, eps=1e-05, momentum=0.1, affine=True, track_running_stats=False)
      (relu): ReLU(inplace=True)
      (downsample): Sequential(
        (0): Conv2d(512, 1024, kernel_size=(1, 1), stride=(2, 2), bias=False)
        (1): BatchNorm2d(1024, eps=1e-05, momentum=0.1, affine=True, track_running_stats=False)
      )
     )
     (1): BottleneckAdpt(
       (conv1): Conv2d(1024, 256, kernel_size=(1, 1), stride=(1, 1), bias=False)
       (lhc1): ConvAdapt(
         (gwc): Conv2d(256, 256, kernel_size=(3, 3), stride=(1, 1), padding=(1, 1), groups=32)
         (pwc): Conv2d(256, 256, kernel_size=(1, 1), stride=(1, 1))
       )
       (bn1): BatchNorm2d(256, eps=1e-05, momentum=0.1, affine=True, track_running_stats=False)
       (conv2): Conv2d(256, 256, kernel_size=(3, 3), stride=(1, 1), padding=(1, 1), bias=False)
       (lhc2): ConvAdapt(
         (gwc): Conv2d(256, 256, kernel_size=(3, 3), stride=(1, 1), padding=(1, 1), groups=32)
         (pwc): Conv2d(256, 256, kernel_size=(1, 1), stride=(1, 1))
       )
       (bn2): BatchNorm2d(256, eps=1e-05, momentum=0.1, affine=True, track_running_stats=False)
       (conv3): Conv2d(256, 1024, kernel_size=(1, 1), stride=(1, 1), bias=False)
       (bn3): BatchNorm2d(1024, eps=1e-05, momentum=0.1, affine=True, track_running_stats=False)
       (relu): ReLU(inplace=True)
     )
     (2): BottleneckAdpt(
       (conv1): Conv2d(1024, 256, kernel_size=(1, 1), stride=(1, 1), bias=False)
       (lhc1): ConvAdapt(
         (gwc): Conv2d(256, 256, kernel_size=(3, 3), stride=(1, 1), padding=(1, 1), groups=32)
         (pwc): Conv2d(256, 256, kernel_size=(1, 1), stride=(1, 1))
       )
       (bn1): BatchNorm2d(256, eps=1e-05, momentum=0.1, affine=True, track_running_stats=False)
       (conv2): Conv2d(256, 256, kernel_size=(3, 3), stride=(1, 1), padding=(1, 1), bias=False)
       (lhc2): ConvAdapt(
         (gwc): Conv2d(256, 256, kernel_size=(3, 3), stride=(1, 1), padding=(1, 1), groups=32)
         (pwc): Conv2d(256, 256, kernel_size=(1, 1), stride=(1, 1))
       )
       (bn2): BatchNorm2d(256, eps=1e-05, momentum=0.1, affine=True, track_running_stats=False)
       (conv3): Conv2d(256, 1024, kernel_size=(1, 1), stride=(1, 1), bias=False)
       (bn3): BatchNorm2d(1024, eps=1e-05, momentum=0.1, affine=True, track_running_stats=False)
       (relu): ReLU(inplace=True)
     )
     (3): BottleneckAdpt(
       (conv1): Conv2d(1024, 256, kernel_size=(1, 1), stride=(1, 1), bias=False)
       (lhc1): ConvAdapt(
         (gwc): Conv2d(256, 256, kernel_size=(3, 3), stride=(1, 1), padding=(1, 1), groups=32)
         (pwc): Conv2d(256, 256, kernel_size=(1, 1), stride=(1, 1))
       )
       (bn1): BatchNorm2d(256, eps=1e-05, momentum=0.1, affine=True, track_running_stats=False)
       (conv2): Conv2d(256, 256, kernel_size=(3, 3), stride=(1, 1), padding=(1, 1), bias=False)
       (lhc2): ConvAdapt(
         (gwc): Conv2d(256, 256, kernel_size=(3, 3), stride=(1, 1), padding=(1, 1), groups=32)
         (pwc): Conv2d(256, 256, kernel_size=(1, 1), stride=(1, 1))
       )
       (bn2): BatchNorm2d(256, eps=1e-05, momentum=0.1, affine=True, track_running_stats=False)
       (conv3): Conv2d(256, 1024, kernel_size=(1, 1), stride=(1, 1), bias=False)
       (bn3): BatchNorm2d(1024, eps=1e-05, momentum=0.1, affine=True, track_running_stats=False)
       (relu): ReLU(inplace=True)
     )
     (4): BottleneckAdpt(
       (conv1): Conv2d(1024, 256, kernel_size=(1, 1), stride=(1, 1), bias=False)
       (lhc1): ConvAdapt(
         (gwc): Conv2d(256, 256, kernel_size=(3, 3), stride=(1, 1), padding=(1, 1), groups=32)
         (pwc): Conv2d(256, 256, kernel_size=(1, 1), stride=(1, 1))
       )
       (bn1): BatchNorm2d(256, eps=1e-05, momentum=0.1, affine=True, track_running_stats=False)
       (conv2): Conv2d(256, 256, kernel_size=(3, 3), stride=(1, 1), padding=(1, 1), bias=False)
       (lhc2): ConvAdapt(
         (gwc): Conv2d(256, 256, kernel_size=(3, 3), stride=(1, 1), padding=(1, 1), groups=32)
         (pwc): Conv2d(256, 256, kernel_size=(1, 1), stride=(1, 1))
       )
       (bn2): BatchNorm2d(256, eps=1e-05, momentum=0.1, affine=True, track_running_stats=False)
       (conv3): Conv2d(256, 1024, kernel_size=(1, 1), stride=(1, 1), bias=False)
       (bn3): BatchNorm2d(1024, eps=1e-05, momentum=0.1, affine=True, track_running_stats=False)
       (relu): ReLU(inplace=True)
     )
     (5): BottleneckAdpt(
       (conv1): Conv2d(1024, 256, kernel_size=(1, 1), stride=(1, 1), bias=False)
       (lhc1): ConvAdapt(
         (gwc): Conv2d(256, 256, kernel_size=(3, 3), stride=(1, 1), padding=(1, 1), groups=32)
         (pwc): Conv2d(256, 256, kernel_size=(1, 1), stride=(1, 1))
       )
       (bn1): BatchNorm2d(256, eps=1e-05, momentum=0.1, affine=True, track_running_stats=False)
       (conv2): Conv2d(256, 256, kernel_size=(3, 3), stride=(1, 1), padding=(1, 1), bias=False)
       (lhc2): ConvAdapt(
         (gwc): Conv2d(256, 256, kernel_size=(3, 3), stride=(1, 1), padding=(1, 1), groups=32)
         (pwc): Conv2d(256, 256, kernel_size=(1, 1), stride=(1, 1))
       )
       (bn2): BatchNorm2d(256, eps=1e-05, momentum=0.1, affine=True, track_running_stats=False)
       (conv3): Conv2d(256, 1024, kernel_size=(1, 1), stride=(1, 1), bias=False)
       (bn3): BatchNorm2d(1024, eps=1e-05, momentum=0.1, affine=True, track_running_stats=False)


                                                    21
Under review as a conference paper at ICLR 2024


             (relu): ReLU(inplace=True)
         )
        )
        (layer4): Sequential(
          (0): BottleneckAdpt(
            (conv1): Conv2d(1024, 512, kernel_size=(1, 1), stride=(1, 1), bias=False)
            (lhc1): ConvAdapt(
              (gwc): Conv2d(512, 512, kernel_size=(3, 3), stride=(1, 1), padding=(1, 1), groups=64)
              (pwc): Conv2d(512, 512, kernel_size=(1, 1), stride=(1, 1))
            )
            (bn1): BatchNorm2d(512, eps=1e-05, momentum=0.1, affine=True, track_running_stats=False)
            (conv2): Conv2d(512, 512, kernel_size=(3, 3), stride=(2, 2), padding=(1, 1), bias=False)
            (lhc2): ConvAdapt(
              (gwc): Conv2d(512, 512, kernel_size=(3, 3), stride=(1, 1), padding=(1, 1), groups=64)
              (pwc): Conv2d(512, 512, kernel_size=(1, 1), stride=(1, 1))
            )
            (bn2): BatchNorm2d(512, eps=1e-05, momentum=0.1, affine=True, track_running_stats=False)
            (conv3): Conv2d(512, 2048, kernel_size=(1, 1), stride=(1, 1), bias=False)
            (bn3): BatchNorm2d(2048, eps=1e-05, momentum=0.1, affine=True, track_running_stats=False)
            (relu): ReLU(inplace=True)
            (downsample): Sequential(
              (0): Conv2d(1024, 2048, kernel_size=(1, 1), stride=(2, 2), bias=False)
              (1): BatchNorm2d(2048, eps=1e-05, momentum=0.1, affine=True, track_running_stats=False)
            )
          )
          (1): BottleneckAdpt(
            (conv1): Conv2d(2048, 512, kernel_size=(1, 1), stride=(1, 1), bias=False)
            (lhc1): ConvAdapt(
              (gwc): Conv2d(512, 512, kernel_size=(3, 3), stride=(1, 1), padding=(1, 1), groups=64)
              (pwc): Conv2d(512, 512, kernel_size=(1, 1), stride=(1, 1))
            )
            (bn1): BatchNorm2d(512, eps=1e-05, momentum=0.1, affine=True, track_running_stats=False)
            (conv2): Conv2d(512, 512, kernel_size=(3, 3), stride=(1, 1), padding=(1, 1), bias=False)
            (lhc2): ConvAdapt(
              (gwc): Conv2d(512, 512, kernel_size=(3, 3), stride=(1, 1), padding=(1, 1), groups=64)
              (pwc): Conv2d(512, 512, kernel_size=(1, 1), stride=(1, 1))
            )
            (bn2): BatchNorm2d(512, eps=1e-05, momentum=0.1, affine=True, track_running_stats=False)
            (conv3): Conv2d(512, 2048, kernel_size=(1, 1), stride=(1, 1), bias=False)
            (bn3): BatchNorm2d(2048, eps=1e-05, momentum=0.1, affine=True, track_running_stats=False)
            (relu): ReLU(inplace=True)
          )
          (2): BottleneckAdpt(
            (conv1): Conv2d(2048, 512, kernel_size=(1, 1), stride=(1, 1), bias=False)
            (lhc1): ConvAdapt(
              (gwc): Conv2d(512, 512, kernel_size=(3, 3), stride=(1, 1), padding=(1, 1), groups=64)
              (pwc): Conv2d(512, 512, kernel_size=(1, 1), stride=(1, 1))
            )
            (bn1): BatchNorm2d(512, eps=1e-05, momentum=0.1, affine=True, track_running_stats=False)
            (conv2): Conv2d(512, 512, kernel_size=(3, 3), stride=(1, 1), padding=(1, 1), bias=False)
            (lhc2): ConvAdapt(
              (gwc): Conv2d(512, 512, kernel_size=(3, 3), stride=(1, 1), padding=(1, 1), groups=64)
              (pwc): Conv2d(512, 512, kernel_size=(1, 1), stride=(1, 1))
            )
            (bn2): BatchNorm2d(512, eps=1e-05, momentum=0.1, affine=True, track_running_stats=False)
            (conv3): Conv2d(512, 2048, kernel_size=(1, 1), stride=(1, 1), bias=False)
            (bn3): BatchNorm2d(2048, eps=1e-05, momentum=0.1, affine=True, track_running_stats=False)
            (relu): ReLU(inplace=True)
          )
        )
        (avgpool): AdaptiveAvgPool2d(output_size=(1, 1))
        (fc): Linear(in_features=2048, out_features=1000, bias=True)
    )
)


                                                         22
