…
learning rate is set to 0.003, with a warmup period of 1/10 of the total epochs, followed by cosine
decay in the learning rate. Adam shares the same hyperparameter settings as AdamW and are used


                                                    14
Under review as a conference paper at ICLR 2024


Table 6: CNN block structure. This CNN block is for feature extraction, so the size is restricted.
The CNN structure is similar to (Hasani et al., 2020; Lechner et al., 2020)

                                         CNN block structure
                   Layer(type)              Output Shape          Parameter Count
                   conv2d 1 (Conv2D)        (None, 31, 98, 24)    1824
                   conv2d 2 (Conv2D)        (None, 14, 47, 36)    21636
                   conv2d 3 (Conv2D)        (None, 5, 22, 48)     43248
                   conv2d 4 (Conv2D)        (None, 3, 20, 64)     27712
                   dropout 1 (Dropout)      (None, 3, 20, 64)     0
                   conv2d 5 (Conv2D)        (None, 1, 18, 64)     36928
                   flatten 1 (Flatten)      (None, 1152)          0
                   dropout 2 (Dropout)      (None, 1152)          0
                   dense 1 (Dense)          (None, 100)           115300
                   dense 2 (Dense)          (None, 50)            5050
                                   Total Parameter Count: 251,698


as baselines. Additionally, we hybridize AdamW with VeLO, incorporating tuned hyperparameters.
A weight decay of 0.05 and a batch size of 128 are employed. The training is conducted for a total
of 100 epochs on an A100 GPU.
As a validation for scaling up, we followed the instructions outlined in 2 to train a large vision
transformer with 16 as the patch size on the Imagenet dataset. The initial learning rate for both
…
