…
     updated_inputs, info = theseus_optim.forward(theseus_inputs)
     updated_actions = updated_inputs[’actions’]

     # Update model using policy gradient losss
     a_loss = - torch.min(*self.model.Q_s(obs, updated_actions[0]))*c0
     a_loss.backward()
     optim_a.step()



                                               15
Under review as a conference paper at ICLR 2024


For model-based reinforcement learning, We provide the network details for the added networks
we used upon TD-MPC, which are the twin Q networks Q̃ϕ learned in the original state space for
computing the deterministic policy gradient.
(Q_s1): Sequential(
    (0): Linear(in_features=S, out_features=256)
    (1): ELU(alpha=1.0)
    (2): Linear(in_features=256, out_features=Z))
    (3): Linear(in_features=Z+A, out_features=512)
    (4): LayerNorm((512,), elementwise_affine=True)
    (5): Tanh()
    (6): Linear(in_features=512, out_features=512)
    (7): ELU(alpha=1.0)
    (8): Linear(in_features=512, out_features=1))
(Q_s2): Sequential(
    (0): Linear(in_features=S, out_features=256)
    (1): ELU(alpha=1.0)
    (2): Linear(in_features=256, out_features=Z))
    (3): Linear(in_features=Z+A, out_features=512)
    (4): LayerNorm((512,), elementwise_affine=True)
    (5): Tanh()
    (6): Linear(in_features=512, out_features=512)
    (7): ELU(alpha=1.0)
    (8): Linear(in_features=512, out_features=1))

For Imitation Learning, The default network details are as follows. Note that for Robomimic (Man-
dlekar et al., 2021) and Push-T tasks, we use the RNN-encoder from Robomimic; for ManiSkill (Mu
et al., 2021; Gu et al., 2023) tasks, we use the PointNet encoder from ManiSkill2 Gu et al. (2023).
(ho): Sequential(
    (0): Linear(in_features=S, out_features=256)
    (1): ELU(alpha=1.0)
    (2): Linear(in_features=256, out_features=256)
    (3): ELU(alpha=1.0)
    (4): Linear(in_features=256, out_features=Zs))
(ha): Identity
(hl): Sequential(
    (0): Linear(in_features=Zs+A, out_features=256)
    (1): ELU(alpha=1.0)
    (2): Linear(in_features=256, out_features=256)
    (3): ELU(alpha=1.0)
    (4): Linear(in_features=256, out_features=128))
(R): Sequential(
    (0): Linear(in_features=Zs+A+64, out_features=512)
    (1): ELU(alpha=1.0)
    (2): Linear(in_features=512, out_features=512)
    (3): ELU(alpha=1.0)
    (4): Linear(in_features=512, out_features=1))
(d): Sequential(
    (0): Linear(in_features=Zs+A+64, out_features=512)
    (1): ELU(alpha=1.0)
    (2): Linear(in_features=512, out_features=512)
    (3): ELU(alpha=1.0)
    (4): Linear(in_features=512, out_features=Zs+64))

Hyperparameters used for DiffTOP for both model-based RL and imitation learning are shown in
Tab 7. In model-based RL, we use the same parameters with TD-MPC (Hansen et al., 2022) when-
ever possible.

C    E NVIRONMENT D ETAILS
For model-based reinforcement learning evaluation, we use 15 visual continuous control tasks from
Deepmind Control Suite (DMC). For imitation learning, we use 13 tasks (detailed information can
…
