…
       We split sentences into words via spaces.


                                                   25
Under review as a conference paper at ICLR 2024


                                                      Table 4: The structures of auto-encoders.
                                              CV                                                                                        NLP(Linear)
 Layer(type)                               Output Shape                    #—Param—                    Layer(type)                       Output Shape                    #—Param—
 Conv2d-1                                  [-1,32,224,224]                 896                         Linear-1                          [-1,128]                        6,291,584
 ReLU-2                                    [-1,32,224,224]                 0                           BatchNorm1d-2                     [-1,128]                        256
 BatchNorm2d-3                             [-1,32,224,224]                 64                          ReLU-3                            [-1,128]                        0
 MaxPool2d-4                               [-1,32,112,112]                 0                           Linear-4                          [-1,256]                        33,024
 Conv2d-5                                  [-1,64,112,112]                 18,496                      BatchNorm1d-5                     [-1,256]                        512
 ReLU-6                                    [-1,64,112,112]                 0                           ReLU-6                            [-1,256]                        0
 BatchNorm2d-7                             [-1,64,112,112]                 128                         Linear-7                          [-1,96]                         24,672
 MaxPool2d-8                               [-1,64,56,56]                   0                           BatchNorm1d-8                     [-1,96]                         192
 Conv2d-9                                  [-1,128,56,56]                  73,856                      ReLU-9                            [-1,96]                         0
 ReLU-10                                   [-1,128,56,56]                  0                           Linear-10                         [-1,256]                        33,024
 BatchNorm2d-11                            [-1,128,56,56]                  256                         BatchNorm1d-11                    [-1,256]                        512
 MaxPool2d-12                              [-1,128,28,28]                  0                           ReLU-12                           [-1,256]                        0
 Conv2d-13                                 [-1,32,28,28]                   36,896                      Linear-13                         [-1,128]                        32,896
 ReLU-14                                   [-1,32,28,28]                   0                           BatchNorm1d-14                    [-1,128]                        256
 BatchNorm2d-15                            [-1,32,28,28]                   64                          ReLU-15                           [-1,128]                        0
 MaxPool2d-16                              [-1,32,14,14]                   0                           Linear-16                         [-1,49152]                      6,340,608
 Conv2d-17                                 [-1,8,14,14]                    2,312                       Tanh-17                           [-1,49152]                      0
 ReLU-18                                   [-1,8,14,14]                    0                                                            NLP(LSTM)
 BatchNorm2d-19                            [-1,8,14,14]                    16                          LSTM-1                            [-1,64,128]                     459,776
 MaxPool2d-20                              [-1,8,7,7]                      0                           Linear-2                          [-1,96]                         12,384
 Linear-21                                 [-1,294]                        115,542                     LSTM-3                            [-1,64,128]                     132,096
 ReLU-22                                   [-1,294]                        0                           Linear-4                          [-1,64,768]                     99,072
 BatchNorm1d-23                            [-1,294]                        588                         Tanh-5                            [-1,64,768]                     0
 ConvTranspose2d-24                        [-1,32,14,14]                   2,336
 ReLU-25                                   [-1,32,14,14]                   0
 BatchNorm2d-26                            [-1,32,14,14]                   64
 ConvTranspose2d-27                        [-1,128,28,28]                  36,992
 ReLU-28                                   [-1,128,28,28]                  0
 BatchNorm2d-29                            [-1,128,28,28]                  256
 ConvTranspose2d-30                        [-1,64,56,56]                   73,792
 ReLU-31                                   [-1,64,56,56]                   0
 BatchNorm2d-32                            [-1,64,56,56]                   128
 ConvTranspose2d-33                        [-1,32,112,112]                 18,464
 ReLU-34                                   [-1,32,112,112]                 0
 BatchNorm2d-35                            [-1,32,112,112]                 64
 ConvTranspose2d-36                        [-1,16,224,224]                 4,624
 ReLU-37                                   [-1,16,224,224]                 0
 BatchNorm2d-38                            [-1,16,224,224]                 32
 Conv2d-39                                 [-1,3,224,224]                  51


                     Table 5: Results on four computer vision benchmarks. Bold means the best.
DataSet     Method    1       2       3       4       5       6        7       8       9       10      11       12      13      14      15       16      17      18      19      20      AVG
            Zs        … COVID-19
            Ours      … Zs        … APTOS
            Ours      … Zs        … Terra46
…
