…
   Pneumonia         4386            624               900                    20                   20 · 103
      MRI             30              53               170                     6                    2 · 103
     SVHN           38 257          26 032           35 · 103                 10                   20 · 103


                 Table 7: Dataset descriptions for image classification experiments.


                                                        19
                         Layer             Output Shape       Activation     Parameters
                        Conv2D              (32, 32, 32)        ReLU             896
                   BatchNormalization       (32, 32, 32)           -             128
                        Conv2D              (32, 32, 32)        ReLU            9248
                   BatchNormalization       (32, 32, 32)           -             128
                     MaxPooling2D           (16, 16, 32)           -              -
                        Dropout             (16, 16, 32)           -              -
                        Conv2D              (16, 16, 64)        ReLU           18496
                   BatchNormalization       (16, 16, 64)           -             256
                        Conv2D              (16, 16, 64)        ReLU           36928
                   BatchNormalization       (16, 16, 64)           -             256
                     MaxPooling2D             (8, 8, 64)           -              -
                        Dropout               (8, 8, 64)           -              -
                        Conv2D               (8, 8, 128)        ReLU           73856
                   BatchNormalization        (8, 8, 128)           -             512
                        Conv2D               (8, 8, 128)        ReLU           147584
                   BatchNormalization        (8, 8, 128)           -             512
                     MaxPooling2D            (4, 4, 128)           -              -
                        Dropout              (4, 4, 128)           -              -
                        Flatten                (2048,)             -              -
                         Dense                  (128,)          ReLU           262272
                   BatchNormalization           (128,)             -             512
                        Dropout                 (128,)             -              -
                         Dense                   (10,)         Linear           1290
…
we use a CNN with multiple convolutional layers with batch normalization and max pooling. The
details of the architecture are described in Table 8. For FashionMNIST, we use a simple feed forward
architecture on the flattened input. The details of the architecture are described in Table 9. For
   3
       https://www.kaggle.com/datasets/navoneel/brain-mri-images-for-brain-tumor-detection


                                                     20
                        Layer      Output Shape     Activation     Parameters
                        Flatten        (784,)            -              -
                        Linear      (784, 512)           -          401,920
                        ReLU           (512,)         ReLU              -
                        Linear      (512, 512)           -          262,656
                        ReLU           (512,)         ReLU              -
                        Linear       (512, 10)           -            5,130

                                  Table 9: FashionMNIST architecture


Pneumonia, we use a simple CNN, again with batch normalization and max pooling, with details
given in Table 10. For MRI we use an architecture similar to pneumonia with details described in

                      Layer           Output Shape      Activation     Parameters
                      Conv2d            (3, 32, 32)          -             896
                   BatchNorm2d         (32, 32, 32)          -              64
                      Conv2d           (32, 32, 32)          -            18,464
                   BatchNorm2d         (64, 32, 32)          -             128
                    MaxPool2d          (64, 16, 16)          -               -
                      Conv2d           (64, 16, 16)          -            36,928
                   BatchNorm2d         (64, 16, 16)          -             128
                    MaxPool2d            (64, 8, 8)          -               -
                      Flatten             (4096,)            -               -
                      Linear                (2,)             -          4,194,306

                                   Table 10: Pneumonia architecture

Table 11. For SVHN, we use again a standard CNN with batch normalization and max pooling,

                      Layer           Output Shape      Activation     Parameters
                      Conv2d            (3, 32, 32)          -             896
                   BatchNorm2d         (32, 32, 32)          -              64
                      Conv2d           (32, 32, 32)          -            18,464
                   BatchNorm2d         (64, 32, 32)          -             128
                    MaxPool2d          (64, 16, 16)          -               -
                      Conv2d           (64, 16, 16)          -            36,928
                   BatchNorm2d         (64, 16, 16)          -             128
                    MaxPool2d            (64, 8, 8)          -               -
                      Flatten            (32768,)            -               -
                      Linear                (2,)             -          2,636,034

                                      Table 11: MRI architecture

detailed in Table 12.
For our experiments on interpretable models, we use m = 5 clients. For decision trees (DT), we
split by the Gini index with at least 2 samples for splitting. For RuleFit, we use a tree size of 4
…
an unlabeled dataset of size U = 370, a training set of size 85, and a test set of size 114. For the
AdultsIncome dataset, we use an unlabeled dataset of size U = 104 , a training set of size 31, 073,
and a test set of size 7769. For the Mushroom dataset, we use an unlabeled dataset of size U = 4000,
a training set of size 2499, and a test set of size 1625. For the covertype dataset, we use an unlabeled
dataset of size U = 5 · 104 , a training set of size 414, 810, and a test set of size 116, 202.


                                                  21
   Layer      Output Shape     Parameters
   Conv2d       (3, 32, 32)        896
BatchNorm2d    (32, 32, 32)        64
   Conv2d      (32, 32, 32)       9,248
 MaxPool2d     (32, 16, 16)         -
 Dropout2d     (32, 16, 16)         -
   Conv2d      (32, 16, 16)      18,464
BatchNorm2d    (64, 16, 16)        128
   Conv2d      (64, 16, 16)      36,928
 MaxPool2d       (64, 8, 8)         -
 Dropout2d       (64, 8, 8)         -
   Conv2d        (64, 8, 8)      73,856
BatchNorm2d     (128, 8, 8)        256
   Conv2d       (128, 8, 8)     147,584
 MaxPool2d      (128, 4, 4)         -
 Dropout2d      (128, 4, 4)         -
   Flatten        (2048,)           -
   Linear          (128,)       262,272
  Dropout          (128,)           -
   Linear           (10,)         1,290

       Table 12: SVHN architecture


                   22
