…
a learning rate of 0.001, decayed 10 times if the metric is not improved within 20 epochs, and the
training process is terminated after 1000 epochs. The training time depends on the number of masks
and the sparsity of each mask, for example, it takes approximately 48 GPU hours to train our SMR
model with K = 10 masks and a sparsity ratio of 0.9 for each mask. The label of each vertex is
categorized into 8 types in the following set: {non-contact, wall, floor, chair, sofa, table, bed, stool}.


D    N ETWORK C OMPARISON

     Layer (Type) Output Shape         Param #             Layer (Type)         Output Shape    Param #
     Linear             [655, 64]         6,400            Sparse Linear           [655, 64]           3
     GroupNorm          [64, 655]           128            Sparse Linear           [655, 64]         640
     ReLU               [655, 64]             0            Sparse GroupNorm        [64, 655]          16
     Linear             [655, 64]        36,928            Sparse ReLU             [655, 64]           0
     GroupNorm          [64, 655]           128            Sparse Linear           [655, 64]       4,616
     ReLU               [655, 64]             0            Sparse GroupNorm        [64, 655]          16
     Linear             [164, 64]        36,928            Sparse ReLU             [655, 64]           0
     GroupNorm          [64, 164]           128            Sparse Linear           [164, 64]       4,616
     ReLU               [164, 64]             0            Sparse GroupNorm        [64, 164]          16
     Linear              [41, 64]        36,928            Sparse ReLU             [164, 64]           0
     GroupNorm           [64, 41]           128            Sparse Linear            [41, 64]       4,616
     ReLU                [41, 64]             0            Sparse GroupNorm         [64, 41]          16
     Linear               [512]       1,344,000            Sparse ReLU              [41, 64]           0
     LayerNorm            [512]           1,024            Sparse Linear             [512]       134,400
     ReLU                 [512]               0            Sparse LayerNorm          [512]           128
                                                           Sparse ReLU               [512]             0
     Linear               [256]         131,328
                                                           Sparse Linear             [256]        16,416
     Linear               [256]         131,328
                                                           Sparse Linear             [256]        16,416
     Linear            [655, 128]        33,280
                                                           Sparse Linear          [655, 128]       3,328
     GroupNorm         [128, 655]           256            Sparse GroupNorm       [128, 655]          32
     ReLU              [655, 128]             0            Sparse ReLU            [655, 128]           0
     Linear             [655, 64]         8,256            Sparse Linear           [655, 64]       1,032
     GroupNorm          [64, 655]           128            Sparse GroupNorm        [64, 655]          16
     ReLU               [655, 64]             0            Sparse ReLU             [655, 64]           0
     Linear             [655, 64]        36,928            Sparse Linear           [655, 64]       4,616
     GroupNorm          [64, 655]           128            Sparse GroupNorm        [64, 655]          16
     ReLU               [655, 64]             0            Sparse ReLU             [655, 64]           0
     Linear             [655, 64]        36,928            Sparse Linear           [655, 64]       4,616
     GroupNorm          [64, 655]           128            Sparse GroupNorm        [64, 655]          16
     ReLU               [655, 64]             0            Sparse ReLU             [655, 64]           0
     Linear             [655, 64]        36,928            Sparse Linear           [655, 64]       4,616
     GroupNorm          [64, 655]           128            Sparse GroupNorm        [64, 655]          16
     ReLU               [655, 64]             0            Sparse ReLU             [655, 64]           0
     Linear              [655, 8]         4,616            Sparse Linear            [655, 8]         576
            Total # params            1,883,080                      Total # params              200.795

Table 7: Detailed network architecture of origi-         Table 8: Detailed network architecture of our
nal POSA implemented in Hassan et al. (2021)             SMR method that use 3 masks.

Table 7 and Table 8 show the comparison between layers (including the function, the output shape
when passing to that layer, and its number of parameters) implemented in the architecture of the
…
