…
                  Critic lr               0.001           0.001    0.001         0.001
                  Batch size              256             256      256           256
                  Buffer size             500K            500K     500K          500K
                  Critic gamma            0.99            0.99     0.99          0.99
                  Actor eval epsilon      0               0        0             0
                  Critic eval epsilon     0               0        0             0

                          Table 4: Environment/Policy-specific Hyperparameters


     D.2   N ETWORK ARCHITECTURES : P ENDULUM AND M UJOCO TASKS
 1 # Actor
 2 Actor(
 3   (l1): Linear(in_features=dim-action, out_features=256, bias=True)
 4   (l2): Linear(in_features=256, out_features=256, bias=True)
 5   (mean_linear): Linear(in_features=256, out_features=8, bias=True)
 6   (log_std_linear): Linear(in_features=256, out_features=8, bias=True)
 7 )
 8 # Critic
 9 dim = dim-state if if_afterstate else dim-state + dim-action
10 Critic(
11   (l1): Linear(in_features=dim, out_features=256, bias=True)
12   (l2): Linear(in_features=256, out_features=256, bias=True)
13   (l3): Linear(in_features=256, out_features=1, bias=True)
14   (l4): Linear(in_features=64, out_features=256, bias=True)
15   (l5): Linear(in_features=256, out_features=256, bias=True)
16   (l6): Linear(in_features=256, out_features=1, bias=True)
17 )
18
19 # State Model
20 Model(
21   (_enc): Sequential(
22     (0): Linear(in_features=dim-state + dim-action, out_features=256,
       bias=True)
23     (1): ReLU()
24     (2): Linear(in_features=256, out_features=32, bias=True)
25   )
26   (_dec): Sequential(
27     (0): Linear(in_features=32, out_features=256, bias=True)
28     (1): ReLU()
29     (2): Linear(in_features=256, out_features=27, bias=True)
30   )
31   (criterion): MSELoss()
32 )


                                                     15
     Under review as a conference paper at ICLR 2024


33
34 # Reward Model
35 Model(
36   (_enc): Sequential(
37     (0): Linear(in_features=dim-state + dim-action, out_features=256,
       bias=True)
38     (1): ReLU()
39     (2): Linear(in_features=256, out_features=32, bias=True)
40   )
41   (_dec): Sequential(
42     (0): Linear(in_features=32, out_features=256, bias=True)
43     (1): ReLU()
44     (2): Linear(in_features=256, out_features=1, bias=True)
45   )
46   (criterion): MSELoss()
47 )


     D.3      N ETWORK ARCHITECTURES : PAINT G YM

     We employed the same architecture for Actor, Critic, and the reward model as (Huang et al., 2019)3
     so let us describe our cVAE-based state model.
 1 cVAE(
 2   (encoder): Encoder(
 3     (encode): Sequential(
 4       (0): Conv2d(3, 16, kernel_size=(5, 5), stride=(1, 1))
 5       (1): BatchNorm2d(16, eps=1e-05, momentum=0.1, affine=True,
       track_running_stats=True)
 6       (2): ReLU(inplace=True)
 7       (3): Conv2d(16, 32, kernel_size=(5, 5), stride=(1, 1))
 8       (4): BatchNorm2d(32, eps=1e-05, momentum=0.1, affine=True,
       track_running_stats=True)
 9       (5): ReLU(inplace=True)
10       (6): MaxPool2d(kernel_size=2, stride=2, padding=0, dilation=1,
       ceil_mode=False)
11       (7): Conv2d(32, 64, kernel_size=(3, 3), stride=(1, 1))
12       (8): BatchNorm2d(64, eps=1e-05, momentum=0.1, affine=True,
       track_running_stats=True)
13       (9): ReLU(inplace=True)
14       (10): Conv2d(64, 64, kernel_size=(3, 3), stride=(1, 1))
15       (11): BatchNorm2d(64, eps=1e-05, momentum=0.1, affine=True,
       track_running_stats=True)
16       (12): ReLU(inplace=True)
17       (13): MaxPool2d(kernel_size=2, stride=2, padding=0, dilation=1,
       ceil_mode=False)
18       (14): Flatten()
19       (15): MLP(
20         (mlp): Sequential(
21           (Linear_0): Linear(in_features=50176, out_features=256, bias=
       True)
22           (BatchNorm_0): BatchNorm1d(256, eps=1e-05, momentum=0.1, affine
       =True, track_running_stats=True)
23           (ReLU_0): ReLU(inplace=True)
24           (Linear_1): Linear(in_features=256, out_features=128, bias=True
       )
25           (BatchNorm_1): BatchNorm1d(128, eps=1e-05, momentum=0.1, affine
       =True, track_running_stats=True)
26           (ReLU_1): ReLU(inplace=True)
27         )
28       )
29     )
30     (calc_mean): MLP(
        3
            See Appendix 7.1: https://arxiv.org/pdf/1903.04411.pdf


                                                    16
     Under review as a conference paper at ICLR 2024


31           (mlp): Sequential(
32             (Linear_0): Linear(in_features=160, out_features=64, bias=True)
33             (BatchNorm_0): BatchNorm1d(64, eps=1e-05, momentum=0.1, affine=
           True, track_running_stats=True)
34             (ReLU_0): ReLU(inplace=True)
35             (Linear_1): Linear(in_features=64, out_features=32, bias=True)
36           )
37         )
38         (calc_logvar): MLP(
39           (mlp): Sequential(
40             (Linear_0): Linear(in_features=160, out_features=64, bias=True)
41             (BatchNorm_0): BatchNorm1d(64, eps=1e-05, momentum=0.1, affine=
           True, track_running_stats=True)
42             (ReLU_0): ReLU(inplace=True)
43             (Linear_1): Linear(in_features=64, out_features=32, bias=True)
44           )
45         )
46       )
47       (decoder): Decoder(
48         (decode): Sequential(
49           (0): MLP(
50             (mlp): Sequential(
51               (Linear_0): Linear(in_features=64, out_features=64, bias=True)
52               (BatchNorm_0): BatchNorm1d(64, eps=1e-05, momentum=0.1, affine=
           True, track_running_stats=True)
53               (ReLU_0): ReLU(inplace=True)
54               (Linear_1): Linear(in_features=64, out_features=128, bias=True)
55               (BatchNorm_1): BatchNorm1d(128, eps=1e-05, momentum=0.1, affine
           =True, track_running_stats=True)
56               (ReLU_1): ReLU(inplace=True)
57               (Linear_2): Linear(in_features=128, out_features=256, bias=True
           )
58               (BatchNorm_2): BatchNorm1d(256, eps=1e-05, momentum=0.1, affine
           =True, track_running_stats=True)
59               (ReLU_2): ReLU(inplace=True)
60               (Linear_3): Linear(in_features=256, out_features=49152, bias=
           True)
61             )
62           )
63           (1): Sigmoid()
64         )
65       )
66       (label_embedding): Sequential(
67         (0): Linear(in_features=65, out_features=32, bias=True)
68       )
69       (a2img_encoder): Sequential(
70         (0): Conv2d(67, 64, kernel_size=(1, 1), stride=(1, 1))
71         (1): TReLU()
72         (2): Conv2d(64, 64, kernel_size=(1, 1), stride=(1, 1))
73         (3): TReLU()
74         (4): Conv2d(64, 32, kernel_size=(1, 1), stride=(1, 1))
75         (5): TReLU()
76         (6): Flatten()
77         (7): Linear(in_features=131072, out_features=128, bias=True)
78         (8): TReLU()
79         (9): Linear(in_features=128, out_features=32, bias=True)
80       )
81       (_criterion): BCELoss()
82   )


     D.4    N ETWORK ARCHITECTURES : R EC S IM
 1   # Note: DQN’s input is 3D-tensor -> (batch-size x num-actions x dim-state
          + dim-action)


                                                  17
    Under review as a conference paper at ICLR 2024


2 DQN(
3   (0): Linear(in_features=dim-state + dim-action, out_features=128, bias=
      True)
4   (1): ReLU()
5   (2): Linear(in_features=128, out_features=64, bias=True)
6   (3): ReLU()
7   (4): Linear(in_features=64, out_features=1, bias=True) # Output Q-
      values for each action: batch-size x num-actions
8 )


                                                 18
