…
In our research, we leveraged the power of GCNs to model the temporal evolution of cyclones by
treating the cyclone locations as nodes in the graph and the evolution of time as the edges connect-
ing them. This enabled us to capture the dynamic patterns and dependencies in cyclone behavior,
ultimately enhancing our understanding and predictive capabilities in cyclone forecasting.


                                                     5
Under review as a conference paper at ICLR 2024


                      Layer (type)    Input Shape     Output Shape    Param #
                       GCNConv            (1, 1)        (1, 128)        256
                         ReLU           (1, 128)        (1, 128)          0
                        Dropout         (1, 128)        (1, 128)          0
                       GCNConv          (1, 128)         (1, 64)       8,256
                         ReLU            (1, 64)         (1, 64)          0
                        Dropout          (1, 64)         (1, 64)          0
                       GCNConv           (1, 64)          (1, 1)         65
                         Total                                         8,577

                                     Table 1: Model Summary


4.2   T RAINING AND E VALUATION

The GCN model was trained on the cyclone dataset using suitable optimization techniques, such
as stochastic gradient descent or Adam optimization. We utilized appropriate evaluation metrics
to assess the performance of the model, such as R-squared, mean absolute error (MAE), and root
…
