…
1103   01 and group 10 have the same number of training and test samples, the worst-group accuracy is
1104   calculated by taking the average of the accuracies of these two groups. Table 5 shows the worst-group
1105   accuracies for unbalanced, group balanced, addition, and concatenation datasets.
1106
1107
                          Table 13: Architecture details of autoencoder for Dominoes dataset
1108    Sl. No.   Layer                 Filter No.   Kernel Size   Stride   Padding   Output Padding   Output Shape    Param No.
1109    1         Conv2d                32           5             2        2         -                (32,16,16)      2432
        2         LeakyReLU             -            -             -        -         -                (32,16,16)      0
1110    3         BatchNorm2d           -            -             -        -         -                (32,16,16)      64
1111    4         Conv2d                64           5             2        2         -                (64,8,8)        51264
        5         LeakyReLU             -            -             -        -         -                (64,8,8)        0
1112    6         BatchNorm2d           -            -             -        -         -                (64,8,8)        128
1113    7         Conv2d                128          3             2        0         -                (128,3,3)       73856
        8         LeakyReLU             -            -             -        -         -                (128,3,3)       0
1114
        9         Flatten               -            -             -        -         -                1152            0
1115    10        Linear (embedding)    -            -             -        -         -                10              11530
1116    11        Clustering Layer      -            -             -        -         -                10              100
        12        Linear(deembedding)   -            -             -        -         -                1152            12672
1117    13        LeakyReLU             -            -             -        -         -                1152            0
1118    14        ConvTranspose2d       64           3             2        0         1                (64, 8, 8)      73,792
        15        LeakyReLU             -            -             -        -         -                (64, 8, 8)      0
1119    16        BatchNorm2d           -            -             -        -         -                (64, 8, 8)      128
1120    17        ConvTranspose2d       32           5             2        2         1                (32, 16, 16)    51,232
        18        LeakyReLU             -            -             -        -         -                (32, 16, 16)    0
1121    19        BatchNorm2d           -            -             -        -         -                (32, 16, 16)    64
1122    20        ConvTranspose2d       3            5             2        2         1                (3, 32, 32)     2403
1123
1124
       C.3.4      S PAWRIOUS
1125
1126   The summary of the subset of Spawrious dataset Lynch et al. (2023) that we use for our experiment is
1127   given in Table 14. The samples of this dataset are shown in Fig. 20.
1128
1129
1130                          Table 14: Summary of the subset of the Spawrious dataset
1131
                             Spawrious Group 00 Group 01 Group 10 Group 11
…
