…
Recall that C denotes the number of classes, m the number of LFs, and x an image of a real sample.
Further, let nw denote the number of samples that have at least one weak label vote from any LF, let


                                                  16
Published as a conference paper at ICLR 2023


     ==========================================================================================
     Layer (type:depth-idx)                    Output Shape             Param #
     ==========================================================================================
     InfoDCDiscriminator                       --                       --
     ├─Sequential: 1-1                          [16, 512, 4, 4]          --
     │     └─Conv2d: 2-1                        [16, 64, 32, 32]         1,792
     │     └─LeakyReLU: 2-2                     [16, 64, 32, 32]         --
     │     └─Conv2d: 2-3                        [16, 64, 16, 16]         65,600
     │     └─LeakyReLU: 2-4                     [16, 64, 16, 16]         --
     │     └─Conv2d: 2-5                        [16, 128, 16, 16]        73,856
     │     └─LeakyReLU: 2-6                     [16, 128, 16, 16]        --
     │     └─Conv2d: 2-7                        [16, 128, 8, 8]          262,272
     │     └─LeakyReLU: 2-8                     [16, 128, 8, 8]          --
     │     └─Conv2d: 2-9                        [16, 256, 8, 8]          295,168
     │     └─LeakyReLU: 2-10                    [16, 256, 8, 8]          --
     │     └─Conv2d: 2-11                       [16, 256, 4, 4]          1,048,832
     │     └─LeakyReLU: 2-12                    [16, 256, 4, 4]          --
     │     └─Conv2d: 2-13                       [16, 512, 4, 4]          1,180,160
     │     └─LeakyReLU: 2-14                    [16, 512, 4, 4]          --
     │     └─Dropout: 2-15                      [16, 512, 4, 4]          --
     ├─Sequential: 1-2                          [16, 1, 1, 1]            --
     │     └─Conv2d: 2-16                       [16, 1, 1, 1]            8,192
     ==========================================================================================
     Total params: 2,935,872
     Trainable
 Figure         params: 2,935,872
        4: The DCGAN      discriminator architecture used in our experiments with 32 x 32 images.
     Non-trainable params: 0
     Total mult-adds (G): 15.93
     ==========================================================================================
…
     Input (type:depth-idx)
     Layer  size (MB): 0.20                    Output Shape             Param #
     Forward/backward pass size (MB): 19.40
     ==========================================================================================
     Params size (MB): 11.74
     DCGeneratorThree                          --                       --
     Estimated Total Size (MB): 31.34
     ├─Linear: 1-1                              --                       2
     ==========================================================================================
     ├─Sequential:  1-2                         [16, 3, 32, 32]          --
      │    └─ConvTranspose2d: 2-1              [16, 512, 4, 4]           901,632
      │    └─BatchNorm2d: 2-2                  [16, 512, 4, 4]           1,024
      │    └─ReLU: 2-3                         [16, 512, 4, 4]           --
      │    └─ConvTranspose2d: 2-4              [16, 256, 8, 8]           2,097,408
      │    └─BatchNorm2d: 2-5                  [16, 256, 8, 8]           512
      │    └─ReLU: 2-6                         [16, 256, 8, 8]           --
      │    └─ConvTranspose2d: 2-7              [16, 128, 16, 16]         524,416
      │    └─BatchNorm2d: 2-8                  [16, 128, 16, 16]         256
      │    └─ReLU: 2-9                         [16, 128, 16, 16]         --
      │    └─ConvTranspose2d: 2-10             [16, 64, 32, 32]          131,136
      │    └─BatchNorm2d: 2-11                 [16, 64, 32, 32]          128
      │    └─ReLU: 2-12                        [16, 64, 32, 32]          --
      │    └─ConvTranspose2d: 2-13             [16, 3, 32, 32]           1,731
      │    └─Tanh: 2-14                        [16, 3, 32, 32]           --
      ==========================================================================================
      Total params: 3,658,245
    Figure 5: The
      Trainable    DCGAN
                params:      generator architecture used in our experiments with 32x32 images.
                        3,658,245
      Non-trainable params: 0
      Total mult-adds (G): 6.70
       ==========================================================================================
…
