…
at the end of each layer. Batch normalization and dropout techniques are used for regularization.
Detailed network configurations are below. Similarly, for the multi-bias MNIST, we use four CNN
layers with kernel size {7, 7, 5, 3} and channel size {8, 32, 64, 128}, respectively. For corrupted
CIFAR, BAR, and BFFHQ, we utilize ResNet-18, which is provided by the open-source library
torchvision. For CelebA, we follow the experimental setting of CNC (Zhang et al., 2022b), which
uses ResNet-50 as a backbone network. For CivilCOmments-WILDS, we use pretrained-BRET for
the backbone network and exactly the same hyperparameters as in (Zhang et al., 2022b).
SimConv-1.
(conv1): Conv2d(3, 8, kernel_size=(4, 4), stride=(1, 1))
(bn1): BatchNorm2d(8, eps=1e-05, momentum=0.1, affine=True,
track_running_stats=True)
(relu1): ReLU()
(dropout1): Dropout(p=0.5, inplace=False)
(avgpool1): AvgPool2d(kernel_size=2, stride=2, padding=0)
(conv2): Conv2d(8, 32, kernel_size=(4, 4), stride=(1, 1))
(bn2): BatchNorm2d(32, eps=1e-05, momentum=0.1, affine=True,
track_running_stats=True)
(relu2): ReLU()
(dropout2): Dropout(p=0.5, inplace=False)
(avgpool2): AvgPool2d(kernel_size=2, stride=2, padding=0)
(conv3): Conv2d(32, 64, kernel_size=(4, 4), stride=(1, 1))
(relu3): ReLU()
(bn3): BatchNorm2d(64, eps=1e-05, momentum=0.1, affine=True,
track_running_stats=True)
(dropout3): Dropout(p=0.5, inplace=False)
(avgpool3): AdaptiveAvgPool2d(output_size=(1, 1))
(fc): Linear(in_features=64, out_features=$num_class, bias=True)
SimConv-2.
(conv1): Conv2d(3, 8, kernel_size=(7, 7), stride=(1, 1))
(bn1): BatchNorm2d(8, eps=1e-05, momentum=0.1, affine=True,
track_running_stats=True)
(relu1): ReLU()
(dropout1): Dropout(p=0.5, inplace=False)
(avgpool1): AvgPool2d(kernel_size=3, stride=3, padding=0)
(conv2): Conv2d(8, 32, kernel_size=(7, 7), stride=(1, 1))
(bn2): BatchNorm2d(32, eps=1e-05, momentum=0.1, affine=True,
track_running_stats=True)
(relu2): ReLU()
(dropout2): Dropout(p=0.5, inplace=False)
(avgpool2): AvgPool2d(kernel_size=3, stride=3, padding=0)
(conv3): Conv2d(32, 64, kernel_size=(5, 5), stride=(1, 1))
(relu3): ReLU()
(bn3): BatchNorm2d(64, eps=1e-05, momentum=0.1, affine=True,
track_running_stats=True)
(dropout3): Dropout(p=0.5, inplace=False)
(conv4): Conv2d(64, 128, kernel_size=(3, 3), stride=(1, 1))
(relu4): ReLU()
(bn4): BatchNorm2d(128, eps=1e-05, momentum=0.1, affine=True,


                                                  19
Published as a conference paper at ICLR 2023


track_running_stats=True)
(dropout4): Dropout(p=0.5, inplace=False)
(avgpool): AdaptiveAvgPool2d(output_size=(1, 1))
(fc): Linear(in_features=128, out_features=$num_class, bias=True)

B.2     PGD I MPLEMENTATION D ETAILS

Image processing We train and evaluate with a fixed image size. For colored MNIST case (28 × 28),
multi-bias MNIST (56 × 56), corrupted CIFAR (32 × 32), and the remains (224 × 224). For the
CMNIST, MBMNIST, CCIFAR, BAR, and BFFHQ, we utilize random resize crop, random rotation,
and color jitter to avoid overfitting. We use normalizing with a mean of (0.4914, 0.4822, 0.4465),
…
