…
Table 4, respectively. ‘(n1 , n2 )’ in the table indicates the the number of shortcuts (n1 ) and num-


                                                                        7
Under review as a conference paper at ICLR 2023



Table 3: Time overhead (seconds per 1000 inputs) of the original model and obfuscated model. We
use five obfuscation strategies. ‘(n1 , n2 )’: obfuscated models with n1 shortcuts and n2 extra layers.
                ➀      ➁       ➂       ➃       ➄        ➅           ➆         ➇          ➈           ➉      Average
   Original    30.3   98.5    62.1    72.5    33.4     81.2       346.6     247.4       130.4     231.2        133.4
   (0, 0)      30.4   98.7    61.1    70.4    33.5     82.3       346.4     247.0       130.7     232.1        133.3
   (30, 0)     30.7   97.9    62.3    72.7    33.1     82.0       346.9     247.1       130.2     231.0        133.4
   (0, 10)     30.2   98.6    61.1    74.1    34.9     82.3       346.7     251.5       130.9     231.6        134.2
   (0, 20)     30.6   98.3    63.3    74.1    36.8     81.3       348.2     247.1       130.5     231.3        134.2
   (0, 30)     30.4   98.5    63.2    74.6    34.5     82.8       349.0     251.9       130.4     236.7        135.2

Table 4: Overhead of the model obfuscation on random access memory (RAM) cost (Mb per model).
We use five obfuscation strategies. To eliminate the influence of other processes on the test machine,
we show the increment of RAM usage for the model inference.
                ➀       ➁       ➂      ➃       ➄        ➅           ➆         ➇          ➈           ➉     Average
    Original   18.8    49.5    33.1   46.5    41.3     51.9        241.1     373.8      39.4     97.8        99.3
    (0, 0)     18.9    53.3    33.1   49.9    45.5     56.8        244.8     381.2      40.6     99.8       102.4
    (30, 0)    18.7    51.4    32.6   49.5    46.0     55.8        244.6     381.6      40.3     100.2      102.0
    (0, 10)    25.9    58.8    42.5   53.6    49.2     69.5        248.1     386.7      55.0     107.5      109.7
    (0, 20)    30.0    67.3    50.4   56.7    56.0     66.2        253.1     387.7      66.9     112.0      114.6
    (0, 30)    35.9    81.9    55.2   57.3    71.6     73.0        267.7     397.3      73.4     123.8      123.71


ber of extra layers (n2 ) applied, where (0, 0) indicates only the basic obfuscations (i.e., renaming,
parameter encapsulation) and neural structure are involved. We also include the time and memory
consumption of the original models as the baseline. As shown in Table 3, even though extra layers
are injected into the obfuscated model, ModelObfuscator obfuscated models incur a negligible
…
