…
encoder, and a modality fusion module. We embed image and proprioceptive state into separate
feature vectors, sum them element-wise, and project them into the latent representation z using a
2-layer MLP. Total parameter count of model and policy is 1.6M. We provide a PyTorch-like overview
of our architecture below. We here denote the latent state dimension as Z, the proprioceptive state
dimension as Q, and the action dimension as A for simplicity. As in Hansen et al. (2022a), the
Q-function is implemented using clipped double Q-learning (Fujimoto et al., 2018).
Total parameters: approx. 1.6M
(h):
  (image): Sequential(
    (0): Conv2d(kernel_size=(7,7), stride=2)
    (1): ReLU()
    (2): Conv2d(kernel_size=(5,5), stride=2)
    (3): ReLU()
    (4): Conv2d(kernel_size=(3,3), stride=2)
    (5): ReLU()
    (6): Conv2d(kernel_size=(3,3), stride=2)
    (7): ReLU()
    (8): Conv2d(kernel_size=(3,3), stride=2)
    (9): ReLU()
    (10): Conv2d(kernel_size=(3,3), stride=2)



                                                                                                     17
Published as a conference paper at ICLR 2023


    (11): ReLU()
    (12): Linear(in_features=128, out_features=Z))
  (prop_state): Sequential(
    (0): Linear(in_features=Q, out_features=256)
    (1): ELU(alpha=1.0)
    (2): Linear(in_features=256, out_features=Z))
  (fuse): Sequential(
    (0): Linear(in_features=Z, out_features=256)
    (1): ELU(alpha=1.0)
    (2): Linear(in_features=256, out_features=Z)
(d): Sequential(
  (0): Linear(in_features=Z+A, out_features=512)
  (1): ELU(alpha=1.0)
  (2): Linear(in_features=512, out_features=512)
  (3): ELU(alpha=1.0)
  (4): Linear(in_features=512, out_features=Z))
(R): Sequential(
  (0): Linear(in_features=Z+A, out_features=512)
  (1): ELU(alpha=1.0)
  (2): Linear(in_features=512, out_features=512)
  (3): ELU(alpha=1.0)
  (4): Linear(in_features=512, out_features=1))
(pi): Sequential(
  (0): Linear(in_features=Z, out_features=512)
  (1): ELU(alpha=1.0)
  (2): Linear(in_features=512, out_features=512)
  (3): ELU(alpha=1.0)
  (4): Linear(in_features=512, out_features=A))
(Q1): Sequential(
  (0): Linear(in_features=Z+A, out_features=512)
  (1): LayerNorm((512,))
  (2): Tanh()
  (3): Linear(in_features=512, out_features=512)
  (4): ELU(alpha=1.0)
  (5): Linear(in_features=512, out_features=1))
(Q2): Sequential(
  (0): Linear(in_features=Z+A, out_features=512)
  (1): LayerNorm((512,))
  (2): Tanh()
  (3): Linear(in_features=512, out_features=512)
  (4): ELU(alpha=1.0)



F    TASK VISUALIZATIONS
We visualize demonstration trajectories in Figure 13 for 8 of the tasks that we consider. Each frame
corresponds to raw 224 × 224 RGB image observations that our model takes as input together with
proprioceptive information. Adroit human demonstrations are visualized at key time steps, whereas
Meta-World and DMControl demonstrations are shown at regular intervals of 20 interaction steps
…
