…
all the convolutional layers with Xavier’s normal initialization (Glorot & Bengio, 2010) and add a
leaky ReLU activation and a batch normalization layer after each of them. The total number of the
parameters is 58, 725 for the input of size 320×420. We normalize the input to the range [−0.5, 0.5].

Table 4: Architecture details for an RGB-image of 320 × 480 and K = 25 keypoints, there is a leaky ReLU
layer and a BatchNorm2d layer (50 parameters) after each convolutional layer.

 layer (type)                Input channels   Output channels   kernel size   stride   Output shape     num_params
 Normalize-1                       C                 C                 -        -       [3, 320, 480]         0
 Conv2d-1                          C                 K                 5        3       [25, 79, 106]       1,900
 Conv2d-2                          K                 K                 3        2        [50, 26, 35]       5,650
 Conv2d-3                          K                2K                 3        2        [50, 26, 35]      11,300
 ConvTranspose2d-1                2K                2K                 3        1        [50, 53, 71]      22,550
 ConvTranspose2d-2                2K                 K                 3        2      [25, 107, 143]      11,275
 ConvTranspose2d-3                 K                 K                 3        2      [25, 107, 143]       5,650
 Softplus-14                       K                 K                 -        -             =               0
 SpatialSoftargmaxLayer-15         K                 K                 -        -           [25, 2]           0
 Final output                                                                              [25,3]       total = 58,725


A.2     F EATURE MAP TO KEYPOINT

The argmax operator is not differentiable, so we opted to use a differentiable spatial soft argmax as
an alternative to extract the keypoints coordinates from the feature maps. The spatial soft argmax
(Levine et al., 2016) takes K 2D feature maps f (i) , flattens the feature maps and compute for each of
…
