…
e.g., See the equation (3)), the entropy-like constraint plays a critical role. Then we can balance
the risk of each factor. Although we cannot clearly state a tight relationship between our balanced
entropy acquisition and the risk parity strategy, both goals are similar. So it would be interesting to
see the close relationship between our balanced entropy and risk parity strategy.


                                                  38
Published as a conference paper at ICLR 2023


A.24   M ODEL ARCHITECTURES FOR OUR EXPERIMENTS

In this section, we describe model architectures what we have used in our experiments.
Toy example - moon dataset

BNN(
  (classifier): Sequential(
    (0): Linear(in_features=2, out_features=72, bias=True)
    (1): ReLU(inplace=True)
    (2): Linear(in_features=72, out_features=72, bias=True)
    (3): Dropout(p=0.2, inplace=False)
    (4): ReLU(inplace=True)
    (5): Linear(in_features=72, out_features=72, bias=True)
    (6): Dropout(p=0.2, inplace=False)
    (7): ReLU(inplace=True)
    (8): Linear(in_features=72, out_features=3, bias=False)
  )
)

MNIST

CNNBNN(
  (features): Sequential(
    (0): CNN2D(in_channel=1, out_channel=32, kernel_size=5,
               stride=1, dropout_p=0.5, apply_max_pool=True,
               apply_relu=True)
    (1): CNN2D(in_channel=32, out_channel=64, kernel_size=5,
               stride=1, dropout_p=0.5, apply_max_pool=True,
               apply_relu=True)
  )
  (classifier): Sequential(
    (0): Linear(in_features=1024, out_features=128, bias=True)
    (1): Dropout(p=0.5, inplace=False)
    (2): ReLU(inplace=True)
    (3): Linear(in_features=128, out_features=10, bias=False)
  )
)

SVHN

RESNETBNN(
  (features): ResNet18(remove_last_fully_connected_layer=True)
  (classifier): Sequential(
    (0): Linear(in_features=512, out_features=512, bias=True)
    (1): Dropout(p=0.2, inplace=False)
    (2): ReLU(inplace=True)
    (3): Linear(in_features=512, out_features=10, bias=False)
  )
)

CIFAR-100 and 3×CIFAR-100

RESNETCLASSIFIER(
  (classifier): Sequential(
    (0): Linear(in_features=2048, out_features=2048, bias=True)
    (1): Dropout(p=0.2, inplace=False)
    (2): ReLU(inplace=True)
    (3): Linear(in_features=2048, out_features=100, bias=False)
  )
)


                                               39
Published as a conference paper at ICLR 2023


TinyImageNet

RESNETBNN(
  (features): ResNet50(remove_last_fully_connected_layer=True)
  (classifier): Sequential(
    (0): Linear(in_features=2048, out_features=2048, bias=True)
    (1): Dropout(p=0.2, inplace=False)
    (2): ReLU(inplace=True)
    (3): Linear(in_features=2048, out_features=200, bias=False)
  )
)


                                               40
